Model: "model_19"
__________________________________________________________________________________________________
 Layer (type)                   Output Shape         Param #     Connected to                     
==================================================================================================
 input (InputLayer)             [(None, 25, 92)]     0           []                               
                                                                                                  
 basic_preprocessing_10 (BasicP  (None, 25, 92)      0           ['input[0][0]']                  
 reprocessing)                                                                                    
                                                                                                  
 conv1d_114 (Conv1D)            (None, 25, 48)       13296       ['basic_preprocessing_10[0][0]'] 
                                                                                                  
 batch_normalization_114 (Batch  (None, 25, 48)      192         ['conv1d_114[0][0]']             
 Normalization)                                                                                   
                                                                                                  
 activation_114 (Activation)    (None, 25, 48)       0           ['batch_normalization_114[0][0]']
                                                                                                  
 spatial_dropout1d_57 (SpatialD  (None, 25, 48)      0           ['activation_114[0][0]']         
 ropout1D)                                                                                        
                                                                                                  
 conv1d_115 (Conv1D)            (None, 13, 48)       4464        ['basic_preprocessing_10[0][0]'] 
                                                                                                  
 max_pooling1d_57 (MaxPooling1D  (None, 13, 48)      0           ['spatial_dropout1d_57[0][0]']   
 )                                                                                                
                                                                                                  
 batch_normalization_115 (Batch  (None, 13, 48)      192         ['conv1d_115[0][0]']             
 Normalization)                                                                                   
                                                                                                  
 add_57 (Add)                   (None, 13, 48)       0           ['max_pooling1d_57[0][0]',       
                                                                  'batch_normalization_115[0][0]']
                                                                                                  
 activation_115 (Activation)    (None, 13, 48)       0           ['add_57[0][0]']                 
                                                                                                  
 conv1d_116 (Conv1D)            (None, 13, 96)       13920       ['activation_115[0][0]']         
                                                                                                  
 batch_normalization_116 (Batch  (None, 13, 96)      384         ['conv1d_116[0][0]']             
 Normalization)                                                                                   
                                                                                                  
 activation_116 (Activation)    (None, 13, 96)       0           ['batch_normalization_116[0][0]']
                                                                                                  
 spatial_dropout1d_58 (SpatialD  (None, 13, 96)      0           ['activation_116[0][0]']         
 ropout1D)                                                                                        
                                                                                                  
 conv1d_117 (Conv1D)            (None, 7, 96)        4704        ['activation_115[0][0]']         
                                                                                                  
 max_pooling1d_58 (MaxPooling1D  (None, 7, 96)       0           ['spatial_dropout1d_58[0][0]']   
 )                                                                                                
                                                                                                  
 batch_normalization_117 (Batch  (None, 7, 96)       384         ['conv1d_117[0][0]']             
 Normalization)                                                                                   
                                                                                                  
 add_58 (Add)                   (None, 7, 96)        0           ['max_pooling1d_58[0][0]',       
                                                                  'batch_normalization_117[0][0]']
                                                                                                  
 activation_117 (Activation)    (None, 7, 96)        0           ['add_58[0][0]']                 
                                                                                                  
 conv1d_118 (Conv1D)            (None, 7, 192)       55488       ['activation_117[0][0]']         
                                                                                                  
 batch_normalization_118 (Batch  (None, 7, 192)      768         ['conv1d_118[0][0]']             
 Normalization)                                                                                   
                                                                                                  
 activation_118 (Activation)    (None, 7, 192)       0           ['batch_normalization_118[0][0]']
                                                                                                  
 spatial_dropout1d_59 (SpatialD  (None, 7, 192)      0           ['activation_118[0][0]']         
 ropout1D)                                                                                        
                                                                                                  
 conv1d_119 (Conv1D)            (None, 4, 192)       18624       ['activation_117[0][0]']         
                                                                                                  
 max_pooling1d_59 (MaxPooling1D  (None, 4, 192)      0           ['spatial_dropout1d_59[0][0]']   
 )                                                                                                
                                                                                                  
 batch_normalization_119 (Batch  (None, 4, 192)      768         ['conv1d_119[0][0]']             
 Normalization)                                                                                   
                                                                                                  
 add_59 (Add)                   (None, 4, 192)       0           ['max_pooling1d_59[0][0]',       
                                                                  'batch_normalization_119[0][0]']
                                                                                                  
 activation_119 (Activation)    (None, 4, 192)       0           ['add_59[0][0]']                 
                                                                                                  
 global_average_pooling1d_19 (G  (None, 192)         0           ['activation_119[0][0]']         
 lobalAveragePooling1D)                                                                           
                                                                                                  
 global_max_pooling1d_19 (Globa  (None, 192)         0           ['activation_119[0][0]']         
 lMaxPooling1D)                                                                                   
                                                                                                  
 concatenate_19 (Concatenate)   (None, 384)          0           ['global_average_pooling1d_19[0][
                                                                 0]',                             
                                                                  'global_max_pooling1d_19[0][0]']
                                                                                                  
 dropout_38 (Dropout)           (None, 384)          0           ['concatenate_19[0][0]']         
                                                                                                  
 dense_19 (Dense)               (None, 64)           24640       ['dropout_38[0][0]']             
                                                                                                  
 dropout_39 (Dropout)           (None, 64)           0           ['dense_19[0][0]']               
                                                                                                  
 has_motion (Dense)             (None, 1)            65          ['dropout_39[0][0]']             
                                                                                                  
 gesture_probs (Dense)          (None, 2)            130         ['dropout_39[0][0]']             
                                                                                                  
 output (Concatenate)           (None, 3)            0           ['has_motion[0][0]',             
                                                                  'gesture_probs[0][0]']          
                                                                                                  
==================================================================================================
Total params: 138,019
Trainable params: 136,675
Non-trainable params: 1,344
…
