Model: "model_46"
__________________________________________________________________________________________________
 Layer (type)                   Output Shape         Param #     Connected to                     
==================================================================================================
 input (InputLayer)             [(None, 25, 41)]     0           []                               
                                                                                                  
 enhanced_preprocessing_22 (Enh  (None, 25, 123)     0           ['input[0][0]']                  
 ancedPreprocessing)                                                                              
                                                                                                  
 conv1d_276 (Conv1D)            (None, 25, 48)       17760       ['enhanced_preprocessing_22[0][0]
                                                                 ']                               
                                                                                                  
 batch_normalization_276 (Batch  (None, 25, 48)      192         ['conv1d_276[0][0]']             
 Normalization)                                                                                   
                                                                                                  
 activation_276 (Activation)    (None, 25, 48)       0           ['batch_normalization_276[0][0]']
                                                                                                  
 spatial_dropout1d_138 (Spatial  (None, 25, 48)      0           ['activation_276[0][0]']         
 Dropout1D)                                                                                       
                                                                                                  
 conv1d_277 (Conv1D)            (None, 13, 48)       5952        ['enhanced_preprocessing_22[0][0]
                                                                 ']                               
                                                                                                  
 max_pooling1d_138 (MaxPooling1  (None, 13, 48)      0           ['spatial_dropout1d_138[0][0]']  
 D)                                                                                               
                                                                                                  
 batch_normalization_277 (Batch  (None, 13, 48)      192         ['conv1d_277[0][0]']             
 Normalization)                                                                                   
                                                                                                  
 add_138 (Add)                  (None, 13, 48)       0           ['max_pooling1d_138[0][0]',      
                                                                  'batch_normalization_277[0][0]']
                                                                                                  
 activation_277 (Activation)    (None, 13, 48)       0           ['add_138[0][0]']                
                                                                                                  
 conv1d_278 (Conv1D)            (None, 13, 96)       13920       ['activation_277[0][0]']         
                                                                                                  
 batch_normalization_278 (Batch  (None, 13, 96)      384         ['conv1d_278[0][0]']             
 Normalization)                                                                                   
                                                                                                  
 activation_278 (Activation)    (None, 13, 96)       0           ['batch_normalization_278[0][0]']
                                                                                                  
 spatial_dropout1d_139 (Spatial  (None, 13, 96)      0           ['activation_278[0][0]']         
 Dropout1D)                                                                                       
                                                                                                  
 conv1d_279 (Conv1D)            (None, 7, 96)        4704        ['activation_277[0][0]']         
                                                                                                  
 max_pooling1d_139 (MaxPooling1  (None, 7, 96)       0           ['spatial_dropout1d_139[0][0]']  
 D)                                                                                               
                                                                                                  
 batch_normalization_279 (Batch  (None, 7, 96)       384         ['conv1d_279[0][0]']             
 Normalization)                                                                                   
                                                                                                  
 add_139 (Add)                  (None, 7, 96)        0           ['max_pooling1d_139[0][0]',      
                                                                  'batch_normalization_279[0][0]']
                                                                                                  
 activation_279 (Activation)    (None, 7, 96)        0           ['add_139[0][0]']                
                                                                                                  
 conv1d_280 (Conv1D)            (None, 7, 192)       55488       ['activation_279[0][0]']         
                                                                                                  
 batch_normalization_280 (Batch  (None, 7, 192)      768         ['conv1d_280[0][0]']             
 Normalization)                                                                                   
                                                                                                  
 activation_280 (Activation)    (None, 7, 192)       0           ['batch_normalization_280[0][0]']
                                                                                                  
 spatial_dropout1d_140 (Spatial  (None, 7, 192)      0           ['activation_280[0][0]']         
 Dropout1D)                                                                                       
                                                                                                  
 conv1d_281 (Conv1D)            (None, 4, 192)       18624       ['activation_279[0][0]']         
                                                                                                  
 max_pooling1d_140 (MaxPooling1  (None, 4, 192)      0           ['spatial_dropout1d_140[0][0]']  
 D)                                                                                               
                                                                                                  
 batch_normalization_281 (Batch  (None, 4, 192)      768         ['conv1d_281[0][0]']             
 Normalization)                                                                                   
                                                                                                  
 add_140 (Add)                  (None, 4, 192)       0           ['max_pooling1d_140[0][0]',      
                                                                  'batch_normalization_281[0][0]']
                                                                                                  
 activation_281 (Activation)    (None, 4, 192)       0           ['add_140[0][0]']                
                                                                                                  
 global_average_pooling1d_46 (G  (None, 192)         0           ['activation_281[0][0]']         
 lobalAveragePooling1D)                                                                           
                                                                                                  
 global_max_pooling1d_46 (Globa  (None, 192)         0           ['activation_281[0][0]']         
 lMaxPooling1D)                                                                                   
                                                                                                  
 concatenate_46 (Concatenate)   (None, 384)          0           ['global_average_pooling1d_46[0][
                                                                 0]',                             
                                                                  'global_max_pooling1d_46[0][0]']
                                                                                                  
 dropout_92 (Dropout)           (None, 384)          0           ['concatenate_46[0][0]']         
                                                                                                  
 dense_46 (Dense)               (None, 128)          49280       ['dropout_92[0][0]']             
                                                                                                  
 dropout_93 (Dropout)           (None, 128)          0           ['dense_46[0][0]']               
                                                                                                  
 has_motion (Dense)             (None, 1)            129         ['dropout_93[0][0]']             
                                                                                                  
 gesture_probs (Dense)          (None, 2)            258         ['dropout_93[0][0]']             
                                                                                                  
 output (Concatenate)           (None, 3)            0           ['has_motion[0][0]',             
                                                                  'gesture_probs[0][0]']          
                                                                                                  
==================================================================================================
Total params: 168,803
Trainable params: 167,459
Non-trainable params: 1,344
…
