Model: "model_21"
__________________________________________________________________________________________________
 Layer (type)                   Output Shape         Param #     Connected to                     
==================================================================================================
 input (InputLayer)             [(None, 25, 92)]     0           []                               
                                                                                                  
 enhanced_preprocessing_9 (Enha  (None, 25, 276)     0           ['input[0][0]']                  
 ncedPreprocessing)                                                                               
                                                                                                  
 conv1d_126 (Conv1D)            (None, 25, 48)       39792       ['enhanced_preprocessing_9[0][0]'
                                                                 ]                                
                                                                                                  
 batch_normalization_126 (Batch  (None, 25, 48)      192         ['conv1d_126[0][0]']             
 Normalization)                                                                                   
                                                                                                  
 activation_126 (Activation)    (None, 25, 48)       0           ['batch_normalization_126[0][0]']
                                                                                                  
 spatial_dropout1d_63 (SpatialD  (None, 25, 48)      0           ['activation_126[0][0]']         
 ropout1D)                                                                                        
                                                                                                  
 conv1d_127 (Conv1D)            (None, 13, 48)       13296       ['enhanced_preprocessing_9[0][0]'
                                                                 ]                                
                                                                                                  
 max_pooling1d_63 (MaxPooling1D  (None, 13, 48)      0           ['spatial_dropout1d_63[0][0]']   
 )                                                                                                
                                                                                                  
 batch_normalization_127 (Batch  (None, 13, 48)      192         ['conv1d_127[0][0]']             
 Normalization)                                                                                   
                                                                                                  
 add_63 (Add)                   (None, 13, 48)       0           ['max_pooling1d_63[0][0]',       
                                                                  'batch_normalization_127[0][0]']
                                                                                                  
 activation_127 (Activation)    (None, 13, 48)       0           ['add_63[0][0]']                 
                                                                                                  
 conv1d_128 (Conv1D)            (None, 13, 96)       13920       ['activation_127[0][0]']         
                                                                                                  
 batch_normalization_128 (Batch  (None, 13, 96)      384         ['conv1d_128[0][0]']             
 Normalization)                                                                                   
                                                                                                  
 activation_128 (Activation)    (None, 13, 96)       0           ['batch_normalization_128[0][0]']
                                                                                                  
 spatial_dropout1d_64 (SpatialD  (None, 13, 96)      0           ['activation_128[0][0]']         
 ropout1D)                                                                                        
                                                                                                  
 conv1d_129 (Conv1D)            (None, 7, 96)        4704        ['activation_127[0][0]']         
                                                                                                  
 max_pooling1d_64 (MaxPooling1D  (None, 7, 96)       0           ['spatial_dropout1d_64[0][0]']   
 )                                                                                                
                                                                                                  
 batch_normalization_129 (Batch  (None, 7, 96)       384         ['conv1d_129[0][0]']             
 Normalization)                                                                                   
                                                                                                  
 add_64 (Add)                   (None, 7, 96)        0           ['max_pooling1d_64[0][0]',       
                                                                  'batch_normalization_129[0][0]']
                                                                                                  
 activation_129 (Activation)    (None, 7, 96)        0           ['add_64[0][0]']                 
                                                                                                  
 conv1d_130 (Conv1D)            (None, 7, 192)       55488       ['activation_129[0][0]']         
                                                                                                  
 batch_normalization_130 (Batch  (None, 7, 192)      768         ['conv1d_130[0][0]']             
 Normalization)                                                                                   
                                                                                                  
 activation_130 (Activation)    (None, 7, 192)       0           ['batch_normalization_130[0][0]']
                                                                                                  
 spatial_dropout1d_65 (SpatialD  (None, 7, 192)      0           ['activation_130[0][0]']         
 ropout1D)                                                                                        
                                                                                                  
 conv1d_131 (Conv1D)            (None, 4, 192)       18624       ['activation_129[0][0]']         
                                                                                                  
 max_pooling1d_65 (MaxPooling1D  (None, 4, 192)      0           ['spatial_dropout1d_65[0][0]']   
 )                                                                                                
                                                                                                  
 batch_normalization_131 (Batch  (None, 4, 192)      768         ['conv1d_131[0][0]']             
 Normalization)                                                                                   
                                                                                                  
 add_65 (Add)                   (None, 4, 192)       0           ['max_pooling1d_65[0][0]',       
                                                                  'batch_normalization_131[0][0]']
                                                                                                  
 activation_131 (Activation)    (None, 4, 192)       0           ['add_65[0][0]']                 
                                                                                                  
 global_average_pooling1d_21 (G  (None, 192)         0           ['activation_131[0][0]']         
 lobalAveragePooling1D)                                                                           
                                                                                                  
 global_max_pooling1d_21 (Globa  (None, 192)         0           ['activation_131[0][0]']         
 lMaxPooling1D)                                                                                   
                                                                                                  
 concatenate_21 (Concatenate)   (None, 384)          0           ['global_average_pooling1d_21[0][
                                                                 0]',                             
                                                                  'global_max_pooling1d_21[0][0]']
                                                                                                  
 dropout_42 (Dropout)           (None, 384)          0           ['concatenate_21[0][0]']         
                                                                                                  
 dense_21 (Dense)               (None, 64)           24640       ['dropout_42[0][0]']             
                                                                                                  
 dropout_43 (Dropout)           (None, 64)           0           ['dense_21[0][0]']               
                                                                                                  
 has_motion (Dense)             (None, 1)            65          ['dropout_43[0][0]']             
                                                                                                  
 gesture_probs (Dense)          (None, 2)            130         ['dropout_43[0][0]']             
                                                                                                  
 output (Concatenate)           (None, 3)            0           ['has_motion[0][0]',             
                                                                  'gesture_probs[0][0]']          
                                                                                                  
==================================================================================================
Total params: 173,347
Trainable params: 172,003
Non-trainable params: 1,344
…
