Model: "model_102"
__________________________________________________________________________________________________
 Layer (type)                   Output Shape         Param #     Connected to                     
==================================================================================================
 input (InputLayer)             [(None, 25, 92)]     0           []                               
                                                                                                  
 basic_preprocessing_51 (BasicP  (None, 25, 92)      0           ['input[0][0]']                  
 reprocessing)                                                                                    
                                                                                                  
 conv1d_612 (Conv1D)            (None, 25, 16)       4432        ['basic_preprocessing_51[0][0]'] 
                                                                                                  
 batch_normalization_612 (Batch  (None, 25, 16)      64          ['conv1d_612[0][0]']             
 Normalization)                                                                                   
                                                                                                  
 activation_612 (Activation)    (None, 25, 16)       0           ['batch_normalization_612[0][0]']
                                                                                                  
 spatial_dropout1d_306 (Spatial  (None, 25, 16)      0           ['activation_612[0][0]']         
 Dropout1D)                                                                                       
                                                                                                  
 conv1d_613 (Conv1D)            (None, 13, 16)       1488        ['basic_preprocessing_51[0][0]'] 
                                                                                                  
 max_pooling1d_306 (MaxPooling1  (None, 13, 16)      0           ['spatial_dropout1d_306[0][0]']  
 D)                                                                                               
                                                                                                  
 batch_normalization_613 (Batch  (None, 13, 16)      64          ['conv1d_613[0][0]']             
 Normalization)                                                                                   
                                                                                                  
 add_306 (Add)                  (None, 13, 16)       0           ['max_pooling1d_306[0][0]',      
                                                                  'batch_normalization_613[0][0]']
                                                                                                  
 activation_613 (Activation)    (None, 13, 16)       0           ['add_306[0][0]']                
                                                                                                  
 conv1d_614 (Conv1D)            (None, 13, 32)       1568        ['activation_613[0][0]']         
                                                                                                  
 batch_normalization_614 (Batch  (None, 13, 32)      128         ['conv1d_614[0][0]']             
 Normalization)                                                                                   
                                                                                                  
 activation_614 (Activation)    (None, 13, 32)       0           ['batch_normalization_614[0][0]']
                                                                                                  
 spatial_dropout1d_307 (Spatial  (None, 13, 32)      0           ['activation_614[0][0]']         
 Dropout1D)                                                                                       
                                                                                                  
 conv1d_615 (Conv1D)            (None, 7, 32)        544         ['activation_613[0][0]']         
                                                                                                  
 max_pooling1d_307 (MaxPooling1  (None, 7, 32)       0           ['spatial_dropout1d_307[0][0]']  
 D)                                                                                               
                                                                                                  
 batch_normalization_615 (Batch  (None, 7, 32)       128         ['conv1d_615[0][0]']             
 Normalization)                                                                                   
                                                                                                  
 add_307 (Add)                  (None, 7, 32)        0           ['max_pooling1d_307[0][0]',      
                                                                  'batch_normalization_615[0][0]']
                                                                                                  
 activation_615 (Activation)    (None, 7, 32)        0           ['add_307[0][0]']                
                                                                                                  
 conv1d_616 (Conv1D)            (None, 7, 64)        6208        ['activation_615[0][0]']         
                                                                                                  
 batch_normalization_616 (Batch  (None, 7, 64)       256         ['conv1d_616[0][0]']             
 Normalization)                                                                                   
                                                                                                  
 activation_616 (Activation)    (None, 7, 64)        0           ['batch_normalization_616[0][0]']
                                                                                                  
 spatial_dropout1d_308 (Spatial  (None, 7, 64)       0           ['activation_616[0][0]']         
 Dropout1D)                                                                                       
                                                                                                  
 conv1d_617 (Conv1D)            (None, 4, 64)        2112        ['activation_615[0][0]']         
                                                                                                  
 max_pooling1d_308 (MaxPooling1  (None, 4, 64)       0           ['spatial_dropout1d_308[0][0]']  
 D)                                                                                               
                                                                                                  
 batch_normalization_617 (Batch  (None, 4, 64)       256         ['conv1d_617[0][0]']             
 Normalization)                                                                                   
                                                                                                  
 add_308 (Add)                  (None, 4, 64)        0           ['max_pooling1d_308[0][0]',      
                                                                  'batch_normalization_617[0][0]']
                                                                                                  
 activation_617 (Activation)    (None, 4, 64)        0           ['add_308[0][0]']                
                                                                                                  
 global_average_pooling1d_102 (  (None, 64)          0           ['activation_617[0][0]']         
 GlobalAveragePooling1D)                                                                          
                                                                                                  
 global_max_pooling1d_102 (Glob  (None, 64)          0           ['activation_617[0][0]']         
 alMaxPooling1D)                                                                                  
                                                                                                  
 concatenate_102 (Concatenate)  (None, 128)          0           ['global_average_pooling1d_102[0]
                                                                 [0]',                            
                                                                  'global_max_pooling1d_102[0][0]'
                                                                 ]                                
                                                                                                  
 dropout_204 (Dropout)          (None, 128)          0           ['concatenate_102[0][0]']        
                                                                                                  
 dense_102 (Dense)              (None, 64)           8256        ['dropout_204[0][0]']            
                                                                                                  
 dropout_205 (Dropout)          (None, 64)           0           ['dense_102[0][0]']              
                                                                                                  
 has_motion (Dense)             (None, 1)            65          ['dropout_205[0][0]']            
                                                                                                  
 gesture_probs (Dense)          (None, 2)            130         ['dropout_205[0][0]']            
                                                                                                  
 output (Concatenate)           (None, 3)            0           ['has_motion[0][0]',             
                                                                  'gesture_probs[0][0]']          
                                                                                                  
==================================================================================================
Total params: 25,699
Trainable params: 25,251
Non-trainable params: 448
…
