Model: "model_54"
__________________________________________________________________________________________________
 Layer (type)                   Output Shape         Param #     Connected to                     
==================================================================================================
 input (InputLayer)             [(None, 25, 61)]     0           []                               
                                                                                                  
 basic_preprocessing_27 (BasicP  (None, 25, 61)      0           ['input[0][0]']                  
 reprocessing)                                                                                    
                                                                                                  
 conv1d_324 (Conv1D)            (None, 25, 16)       2944        ['basic_preprocessing_27[0][0]'] 
                                                                                                  
 batch_normalization_324 (Batch  (None, 25, 16)      64          ['conv1d_324[0][0]']             
 Normalization)                                                                                   
                                                                                                  
 activation_324 (Activation)    (None, 25, 16)       0           ['batch_normalization_324[0][0]']
                                                                                                  
 spatial_dropout1d_162 (Spatial  (None, 25, 16)      0           ['activation_324[0][0]']         
 Dropout1D)                                                                                       
                                                                                                  
 conv1d_325 (Conv1D)            (None, 13, 16)       992         ['basic_preprocessing_27[0][0]'] 
                                                                                                  
 max_pooling1d_162 (MaxPooling1  (None, 13, 16)      0           ['spatial_dropout1d_162[0][0]']  
 D)                                                                                               
                                                                                                  
 batch_normalization_325 (Batch  (None, 13, 16)      64          ['conv1d_325[0][0]']             
 Normalization)                                                                                   
                                                                                                  
 add_162 (Add)                  (None, 13, 16)       0           ['max_pooling1d_162[0][0]',      
                                                                  'batch_normalization_325[0][0]']
                                                                                                  
 activation_325 (Activation)    (None, 13, 16)       0           ['add_162[0][0]']                
                                                                                                  
 conv1d_326 (Conv1D)            (None, 13, 32)       1568        ['activation_325[0][0]']         
                                                                                                  
 batch_normalization_326 (Batch  (None, 13, 32)      128         ['conv1d_326[0][0]']             
 Normalization)                                                                                   
                                                                                                  
 activation_326 (Activation)    (None, 13, 32)       0           ['batch_normalization_326[0][0]']
                                                                                                  
 spatial_dropout1d_163 (Spatial  (None, 13, 32)      0           ['activation_326[0][0]']         
 Dropout1D)                                                                                       
                                                                                                  
 conv1d_327 (Conv1D)            (None, 7, 32)        544         ['activation_325[0][0]']         
                                                                                                  
 max_pooling1d_163 (MaxPooling1  (None, 7, 32)       0           ['spatial_dropout1d_163[0][0]']  
 D)                                                                                               
                                                                                                  
 batch_normalization_327 (Batch  (None, 7, 32)       128         ['conv1d_327[0][0]']             
 Normalization)                                                                                   
                                                                                                  
 add_163 (Add)                  (None, 7, 32)        0           ['max_pooling1d_163[0][0]',      
                                                                  'batch_normalization_327[0][0]']
                                                                                                  
 activation_327 (Activation)    (None, 7, 32)        0           ['add_163[0][0]']                
                                                                                                  
 conv1d_328 (Conv1D)            (None, 7, 64)        6208        ['activation_327[0][0]']         
                                                                                                  
 batch_normalization_328 (Batch  (None, 7, 64)       256         ['conv1d_328[0][0]']             
 Normalization)                                                                                   
                                                                                                  
 activation_328 (Activation)    (None, 7, 64)        0           ['batch_normalization_328[0][0]']
                                                                                                  
 spatial_dropout1d_164 (Spatial  (None, 7, 64)       0           ['activation_328[0][0]']         
 Dropout1D)                                                                                       
                                                                                                  
 conv1d_329 (Conv1D)            (None, 4, 64)        2112        ['activation_327[0][0]']         
                                                                                                  
 max_pooling1d_164 (MaxPooling1  (None, 4, 64)       0           ['spatial_dropout1d_164[0][0]']  
 D)                                                                                               
                                                                                                  
 batch_normalization_329 (Batch  (None, 4, 64)       256         ['conv1d_329[0][0]']             
 Normalization)                                                                                   
                                                                                                  
 add_164 (Add)                  (None, 4, 64)        0           ['max_pooling1d_164[0][0]',      
                                                                  'batch_normalization_329[0][0]']
                                                                                                  
 activation_329 (Activation)    (None, 4, 64)        0           ['add_164[0][0]']                
                                                                                                  
 global_average_pooling1d_54 (G  (None, 64)          0           ['activation_329[0][0]']         
 lobalAveragePooling1D)                                                                           
                                                                                                  
 global_max_pooling1d_54 (Globa  (None, 64)          0           ['activation_329[0][0]']         
 lMaxPooling1D)                                                                                   
                                                                                                  
 concatenate_54 (Concatenate)   (None, 128)          0           ['global_average_pooling1d_54[0][
                                                                 0]',                             
                                                                  'global_max_pooling1d_54[0][0]']
                                                                                                  
 dropout_108 (Dropout)          (None, 128)          0           ['concatenate_54[0][0]']         
                                                                                                  
 dense_54 (Dense)               (None, 64)           8256        ['dropout_108[0][0]']            
                                                                                                  
 dropout_109 (Dropout)          (None, 64)           0           ['dense_54[0][0]']               
                                                                                                  
 has_motion (Dense)             (None, 1)            65          ['dropout_109[0][0]']            
                                                                                                  
 gesture_probs (Dense)          (None, 2)            130         ['dropout_109[0][0]']            
                                                                                                  
 output (Concatenate)           (None, 3)            0           ['has_motion[0][0]',             
                                                                  'gesture_probs[0][0]']          
                                                                                                  
==================================================================================================
Total params: 23,715
Trainable params: 23,267
Non-trainable params: 448
…
