Model: "model_55"
__________________________________________________________________________________________________
 Layer (type)                   Output Shape         Param #     Connected to                     
==================================================================================================
 input (InputLayer)             [(None, 25, 61)]     0           []                               
                                                                                                  
 basic_preprocessing_28 (BasicP  (None, 25, 61)      0           ['input[0][0]']                  
 reprocessing)                                                                                    
                                                                                                  
 conv1d_330 (Conv1D)            (None, 25, 16)       2944        ['basic_preprocessing_28[0][0]'] 
                                                                                                  
 batch_normalization_330 (Batch  (None, 25, 16)      64          ['conv1d_330[0][0]']             
 Normalization)                                                                                   
                                                                                                  
 activation_330 (Activation)    (None, 25, 16)       0           ['batch_normalization_330[0][0]']
                                                                                                  
 spatial_dropout1d_165 (Spatial  (None, 25, 16)      0           ['activation_330[0][0]']         
 Dropout1D)                                                                                       
                                                                                                  
 conv1d_331 (Conv1D)            (None, 13, 16)       992         ['basic_preprocessing_28[0][0]'] 
                                                                                                  
 max_pooling1d_165 (MaxPooling1  (None, 13, 16)      0           ['spatial_dropout1d_165[0][0]']  
 D)                                                                                               
                                                                                                  
 batch_normalization_331 (Batch  (None, 13, 16)      64          ['conv1d_331[0][0]']             
 Normalization)                                                                                   
                                                                                                  
 add_165 (Add)                  (None, 13, 16)       0           ['max_pooling1d_165[0][0]',      
                                                                  'batch_normalization_331[0][0]']
                                                                                                  
 activation_331 (Activation)    (None, 13, 16)       0           ['add_165[0][0]']                
                                                                                                  
 conv1d_332 (Conv1D)            (None, 13, 32)       1568        ['activation_331[0][0]']         
                                                                                                  
 batch_normalization_332 (Batch  (None, 13, 32)      128         ['conv1d_332[0][0]']             
 Normalization)                                                                                   
                                                                                                  
 activation_332 (Activation)    (None, 13, 32)       0           ['batch_normalization_332[0][0]']
                                                                                                  
 spatial_dropout1d_166 (Spatial  (None, 13, 32)      0           ['activation_332[0][0]']         
 Dropout1D)                                                                                       
                                                                                                  
 conv1d_333 (Conv1D)            (None, 7, 32)        544         ['activation_331[0][0]']         
                                                                                                  
 max_pooling1d_166 (MaxPooling1  (None, 7, 32)       0           ['spatial_dropout1d_166[0][0]']  
 D)                                                                                               
                                                                                                  
 batch_normalization_333 (Batch  (None, 7, 32)       128         ['conv1d_333[0][0]']             
 Normalization)                                                                                   
                                                                                                  
 add_166 (Add)                  (None, 7, 32)        0           ['max_pooling1d_166[0][0]',      
                                                                  'batch_normalization_333[0][0]']
                                                                                                  
 activation_333 (Activation)    (None, 7, 32)        0           ['add_166[0][0]']                
                                                                                                  
 conv1d_334 (Conv1D)            (None, 7, 64)        6208        ['activation_333[0][0]']         
                                                                                                  
 batch_normalization_334 (Batch  (None, 7, 64)       256         ['conv1d_334[0][0]']             
 Normalization)                                                                                   
                                                                                                  
 activation_334 (Activation)    (None, 7, 64)        0           ['batch_normalization_334[0][0]']
                                                                                                  
 spatial_dropout1d_167 (Spatial  (None, 7, 64)       0           ['activation_334[0][0]']         
 Dropout1D)                                                                                       
                                                                                                  
 conv1d_335 (Conv1D)            (None, 4, 64)        2112        ['activation_333[0][0]']         
                                                                                                  
 max_pooling1d_167 (MaxPooling1  (None, 4, 64)       0           ['spatial_dropout1d_167[0][0]']  
 D)                                                                                               
                                                                                                  
 batch_normalization_335 (Batch  (None, 4, 64)       256         ['conv1d_335[0][0]']             
 Normalization)                                                                                   
                                                                                                  
 add_167 (Add)                  (None, 4, 64)        0           ['max_pooling1d_167[0][0]',      
                                                                  'batch_normalization_335[0][0]']
                                                                                                  
 activation_335 (Activation)    (None, 4, 64)        0           ['add_167[0][0]']                
                                                                                                  
 global_average_pooling1d_55 (G  (None, 64)          0           ['activation_335[0][0]']         
 lobalAveragePooling1D)                                                                           
                                                                                                  
 global_max_pooling1d_55 (Globa  (None, 64)          0           ['activation_335[0][0]']         
 lMaxPooling1D)                                                                                   
                                                                                                  
 concatenate_55 (Concatenate)   (None, 128)          0           ['global_average_pooling1d_55[0][
                                                                 0]',                             
                                                                  'global_max_pooling1d_55[0][0]']
                                                                                                  
 dropout_110 (Dropout)          (None, 128)          0           ['concatenate_55[0][0]']         
                                                                                                  
 dense_55 (Dense)               (None, 64)           8256        ['dropout_110[0][0]']            
                                                                                                  
 dropout_111 (Dropout)          (None, 64)           0           ['dense_55[0][0]']               
                                                                                                  
 has_motion (Dense)             (None, 1)            65          ['dropout_111[0][0]']            
                                                                                                  
 gesture_probs (Dense)          (None, 2)            130         ['dropout_111[0][0]']            
                                                                                                  
 output (Concatenate)           (None, 3)            0           ['has_motion[0][0]',             
                                                                  'gesture_probs[0][0]']          
                                                                                                  
==================================================================================================
Total params: 23,715
Trainable params: 23,267
Non-trainable params: 448
…
