Model: "model_10"
__________________________________________________________________________________________________
 Layer (type)                   Output Shape         Param #     Connected to                     
==================================================================================================
 input (InputLayer)             [(None, 25, 41)]     0           []                               
                                                                                                  
 enhanced_preprocessing_4 (Enha  (None, 25, 123)     0           ['input[0][0]']                  
 ncedPreprocessing)                                                                               
                                                                                                  
 conv1d_60 (Conv1D)             (None, 25, 16)       5920        ['enhanced_preprocessing_4[0][0]'
                                                                 ]                                
                                                                                                  
 batch_normalization_60 (BatchN  (None, 25, 16)      64          ['conv1d_60[0][0]']              
 ormalization)                                                                                    
                                                                                                  
 activation_60 (Activation)     (None, 25, 16)       0           ['batch_normalization_60[0][0]'] 
                                                                                                  
 spatial_dropout1d_30 (SpatialD  (None, 25, 16)      0           ['activation_60[0][0]']          
 ropout1D)                                                                                        
                                                                                                  
 conv1d_61 (Conv1D)             (None, 13, 16)       1984        ['enhanced_preprocessing_4[0][0]'
                                                                 ]                                
                                                                                                  
 max_pooling1d_30 (MaxPooling1D  (None, 13, 16)      0           ['spatial_dropout1d_30[0][0]']   
 )                                                                                                
                                                                                                  
 batch_normalization_61 (BatchN  (None, 13, 16)      64          ['conv1d_61[0][0]']              
 ormalization)                                                                                    
                                                                                                  
 add_30 (Add)                   (None, 13, 16)       0           ['max_pooling1d_30[0][0]',       
                                                                  'batch_normalization_61[0][0]'] 
                                                                                                  
 activation_61 (Activation)     (None, 13, 16)       0           ['add_30[0][0]']                 
                                                                                                  
 conv1d_62 (Conv1D)             (None, 13, 32)       1568        ['activation_61[0][0]']          
                                                                                                  
 batch_normalization_62 (BatchN  (None, 13, 32)      128         ['conv1d_62[0][0]']              
 ormalization)                                                                                    
                                                                                                  
 activation_62 (Activation)     (None, 13, 32)       0           ['batch_normalization_62[0][0]'] 
                                                                                                  
 spatial_dropout1d_31 (SpatialD  (None, 13, 32)      0           ['activation_62[0][0]']          
 ropout1D)                                                                                        
                                                                                                  
 conv1d_63 (Conv1D)             (None, 7, 32)        544         ['activation_61[0][0]']          
                                                                                                  
 max_pooling1d_31 (MaxPooling1D  (None, 7, 32)       0           ['spatial_dropout1d_31[0][0]']   
 )                                                                                                
                                                                                                  
 batch_normalization_63 (BatchN  (None, 7, 32)       128         ['conv1d_63[0][0]']              
 ormalization)                                                                                    
                                                                                                  
 add_31 (Add)                   (None, 7, 32)        0           ['max_pooling1d_31[0][0]',       
                                                                  'batch_normalization_63[0][0]'] 
                                                                                                  
 activation_63 (Activation)     (None, 7, 32)        0           ['add_31[0][0]']                 
                                                                                                  
 conv1d_64 (Conv1D)             (None, 7, 64)        6208        ['activation_63[0][0]']          
                                                                                                  
 batch_normalization_64 (BatchN  (None, 7, 64)       256         ['conv1d_64[0][0]']              
 ormalization)                                                                                    
                                                                                                  
 activation_64 (Activation)     (None, 7, 64)        0           ['batch_normalization_64[0][0]'] 
                                                                                                  
 spatial_dropout1d_32 (SpatialD  (None, 7, 64)       0           ['activation_64[0][0]']          
 ropout1D)                                                                                        
                                                                                                  
 conv1d_65 (Conv1D)             (None, 4, 64)        2112        ['activation_63[0][0]']          
                                                                                                  
 max_pooling1d_32 (MaxPooling1D  (None, 4, 64)       0           ['spatial_dropout1d_32[0][0]']   
 )                                                                                                
                                                                                                  
 batch_normalization_65 (BatchN  (None, 4, 64)       256         ['conv1d_65[0][0]']              
 ormalization)                                                                                    
                                                                                                  
 add_32 (Add)                   (None, 4, 64)        0           ['max_pooling1d_32[0][0]',       
                                                                  'batch_normalization_65[0][0]'] 
                                                                                                  
 activation_65 (Activation)     (None, 4, 64)        0           ['add_32[0][0]']                 
                                                                                                  
 global_average_pooling1d_10 (G  (None, 64)          0           ['activation_65[0][0]']          
 lobalAveragePooling1D)                                                                           
                                                                                                  
 global_max_pooling1d_10 (Globa  (None, 64)          0           ['activation_65[0][0]']          
 lMaxPooling1D)                                                                                   
                                                                                                  
 concatenate_10 (Concatenate)   (None, 128)          0           ['global_average_pooling1d_10[0][
                                                                 0]',                             
                                                                  'global_max_pooling1d_10[0][0]']
                                                                                                  
 dropout_20 (Dropout)           (None, 128)          0           ['concatenate_10[0][0]']         
                                                                                                  
 dense_10 (Dense)               (None, 64)           8256        ['dropout_20[0][0]']             
                                                                                                  
 dropout_21 (Dropout)           (None, 64)           0           ['dense_10[0][0]']               
                                                                                                  
 has_motion (Dense)             (None, 1)            65          ['dropout_21[0][0]']             
                                                                                                  
 gesture_probs (Dense)          (None, 2)            130         ['dropout_21[0][0]']             
                                                                                                  
 output (Concatenate)           (None, 3)            0           ['has_motion[0][0]',             
                                                                  'gesture_probs[0][0]']          
                                                                                                  
==================================================================================================
Total params: 27,683
Trainable params: 27,235
Non-trainable params: 448
…
