Model: "model_16"
__________________________________________________________________________________________________
 Layer (type)                   Output Shape         Param #     Connected to                     
==================================================================================================
 input (InputLayer)             [(None, 25, 41)]     0           []                               
                                                                                                  
 enhanced_preprocessing_7 (Enha  (None, 25, 123)     0           ['input[0][0]']                  
 ncedPreprocessing)                                                                               
                                                                                                  
 conv1d_96 (Conv1D)             (None, 25, 16)       5920        ['enhanced_preprocessing_7[0][0]'
                                                                 ]                                
                                                                                                  
 batch_normalization_96 (BatchN  (None, 25, 16)      64          ['conv1d_96[0][0]']              
 ormalization)                                                                                    
                                                                                                  
 activation_96 (Activation)     (None, 25, 16)       0           ['batch_normalization_96[0][0]'] 
                                                                                                  
 spatial_dropout1d_48 (SpatialD  (None, 25, 16)      0           ['activation_96[0][0]']          
 ropout1D)                                                                                        
                                                                                                  
 conv1d_97 (Conv1D)             (None, 13, 16)       1984        ['enhanced_preprocessing_7[0][0]'
                                                                 ]                                
                                                                                                  
 max_pooling1d_48 (MaxPooling1D  (None, 13, 16)      0           ['spatial_dropout1d_48[0][0]']   
 )                                                                                                
                                                                                                  
 batch_normalization_97 (BatchN  (None, 13, 16)      64          ['conv1d_97[0][0]']              
 ormalization)                                                                                    
                                                                                                  
 add_48 (Add)                   (None, 13, 16)       0           ['max_pooling1d_48[0][0]',       
                                                                  'batch_normalization_97[0][0]'] 
                                                                                                  
 activation_97 (Activation)     (None, 13, 16)       0           ['add_48[0][0]']                 
                                                                                                  
 conv1d_98 (Conv1D)             (None, 13, 32)       1568        ['activation_97[0][0]']          
                                                                                                  
 batch_normalization_98 (BatchN  (None, 13, 32)      128         ['conv1d_98[0][0]']              
 ormalization)                                                                                    
                                                                                                  
 activation_98 (Activation)     (None, 13, 32)       0           ['batch_normalization_98[0][0]'] 
                                                                                                  
 spatial_dropout1d_49 (SpatialD  (None, 13, 32)      0           ['activation_98[0][0]']          
 ropout1D)                                                                                        
                                                                                                  
 conv1d_99 (Conv1D)             (None, 7, 32)        544         ['activation_97[0][0]']          
                                                                                                  
 max_pooling1d_49 (MaxPooling1D  (None, 7, 32)       0           ['spatial_dropout1d_49[0][0]']   
 )                                                                                                
                                                                                                  
 batch_normalization_99 (BatchN  (None, 7, 32)       128         ['conv1d_99[0][0]']              
 ormalization)                                                                                    
                                                                                                  
 add_49 (Add)                   (None, 7, 32)        0           ['max_pooling1d_49[0][0]',       
                                                                  'batch_normalization_99[0][0]'] 
                                                                                                  
 activation_99 (Activation)     (None, 7, 32)        0           ['add_49[0][0]']                 
                                                                                                  
 conv1d_100 (Conv1D)            (None, 7, 64)        6208        ['activation_99[0][0]']          
                                                                                                  
 batch_normalization_100 (Batch  (None, 7, 64)       256         ['conv1d_100[0][0]']             
 Normalization)                                                                                   
                                                                                                  
 activation_100 (Activation)    (None, 7, 64)        0           ['batch_normalization_100[0][0]']
                                                                                                  
 spatial_dropout1d_50 (SpatialD  (None, 7, 64)       0           ['activation_100[0][0]']         
 ropout1D)                                                                                        
                                                                                                  
 conv1d_101 (Conv1D)            (None, 4, 64)        2112        ['activation_99[0][0]']          
                                                                                                  
 max_pooling1d_50 (MaxPooling1D  (None, 4, 64)       0           ['spatial_dropout1d_50[0][0]']   
 )                                                                                                
                                                                                                  
 batch_normalization_101 (Batch  (None, 4, 64)       256         ['conv1d_101[0][0]']             
 Normalization)                                                                                   
                                                                                                  
 add_50 (Add)                   (None, 4, 64)        0           ['max_pooling1d_50[0][0]',       
                                                                  'batch_normalization_101[0][0]']
                                                                                                  
 activation_101 (Activation)    (None, 4, 64)        0           ['add_50[0][0]']                 
                                                                                                  
 global_average_pooling1d_16 (G  (None, 64)          0           ['activation_101[0][0]']         
 lobalAveragePooling1D)                                                                           
                                                                                                  
 global_max_pooling1d_16 (Globa  (None, 64)          0           ['activation_101[0][0]']         
 lMaxPooling1D)                                                                                   
                                                                                                  
 concatenate_16 (Concatenate)   (None, 128)          0           ['global_average_pooling1d_16[0][
                                                                 0]',                             
                                                                  'global_max_pooling1d_16[0][0]']
                                                                                                  
 dropout_32 (Dropout)           (None, 128)          0           ['concatenate_16[0][0]']         
                                                                                                  
 dense_16 (Dense)               (None, 128)          16512       ['dropout_32[0][0]']             
                                                                                                  
 dropout_33 (Dropout)           (None, 128)          0           ['dense_16[0][0]']               
                                                                                                  
 has_motion (Dense)             (None, 1)            129         ['dropout_33[0][0]']             
                                                                                                  
 gesture_probs (Dense)          (None, 2)            258         ['dropout_33[0][0]']             
                                                                                                  
 output (Concatenate)           (None, 3)            0           ['has_motion[0][0]',             
                                                                  'gesture_probs[0][0]']          
                                                                                                  
==================================================================================================
Total params: 36,131
Trainable params: 35,683
Non-trainable params: 448
…
