Model: "model_63"
__________________________________________________________________________________________________
 Layer (type)                   Output Shape         Param #     Connected to                     
==================================================================================================
 input (InputLayer)             [(None, 25, 61)]     0           []                               
                                                                                                  
 enhanced_preprocessing_30 (Enh  (None, 25, 183)     0           ['input[0][0]']                  
 ancedPreprocessing)                                                                              
                                                                                                  
 conv1d_378 (Conv1D)            (None, 25, 16)       8800        ['enhanced_preprocessing_30[0][0]
                                                                 ']                               
                                                                                                  
 batch_normalization_378 (Batch  (None, 25, 16)      64          ['conv1d_378[0][0]']             
 Normalization)                                                                                   
                                                                                                  
 activation_378 (Activation)    (None, 25, 16)       0           ['batch_normalization_378[0][0]']
                                                                                                  
 spatial_dropout1d_189 (Spatial  (None, 25, 16)      0           ['activation_378[0][0]']         
 Dropout1D)                                                                                       
                                                                                                  
 conv1d_379 (Conv1D)            (None, 13, 16)       2944        ['enhanced_preprocessing_30[0][0]
                                                                 ']                               
                                                                                                  
 max_pooling1d_189 (MaxPooling1  (None, 13, 16)      0           ['spatial_dropout1d_189[0][0]']  
 D)                                                                                               
                                                                                                  
 batch_normalization_379 (Batch  (None, 13, 16)      64          ['conv1d_379[0][0]']             
 Normalization)                                                                                   
                                                                                                  
 add_189 (Add)                  (None, 13, 16)       0           ['max_pooling1d_189[0][0]',      
                                                                  'batch_normalization_379[0][0]']
                                                                                                  
 activation_379 (Activation)    (None, 13, 16)       0           ['add_189[0][0]']                
                                                                                                  
 conv1d_380 (Conv1D)            (None, 13, 32)       1568        ['activation_379[0][0]']         
                                                                                                  
 batch_normalization_380 (Batch  (None, 13, 32)      128         ['conv1d_380[0][0]']             
 Normalization)                                                                                   
                                                                                                  
 activation_380 (Activation)    (None, 13, 32)       0           ['batch_normalization_380[0][0]']
                                                                                                  
 spatial_dropout1d_190 (Spatial  (None, 13, 32)      0           ['activation_380[0][0]']         
 Dropout1D)                                                                                       
                                                                                                  
 conv1d_381 (Conv1D)            (None, 7, 32)        544         ['activation_379[0][0]']         
                                                                                                  
 max_pooling1d_190 (MaxPooling1  (None, 7, 32)       0           ['spatial_dropout1d_190[0][0]']  
 D)                                                                                               
                                                                                                  
 batch_normalization_381 (Batch  (None, 7, 32)       128         ['conv1d_381[0][0]']             
 Normalization)                                                                                   
                                                                                                  
 add_190 (Add)                  (None, 7, 32)        0           ['max_pooling1d_190[0][0]',      
                                                                  'batch_normalization_381[0][0]']
                                                                                                  
 activation_381 (Activation)    (None, 7, 32)        0           ['add_190[0][0]']                
                                                                                                  
 conv1d_382 (Conv1D)            (None, 7, 64)        6208        ['activation_381[0][0]']         
                                                                                                  
 batch_normalization_382 (Batch  (None, 7, 64)       256         ['conv1d_382[0][0]']             
 Normalization)                                                                                   
                                                                                                  
 activation_382 (Activation)    (None, 7, 64)        0           ['batch_normalization_382[0][0]']
                                                                                                  
 spatial_dropout1d_191 (Spatial  (None, 7, 64)       0           ['activation_382[0][0]']         
 Dropout1D)                                                                                       
                                                                                                  
 conv1d_383 (Conv1D)            (None, 4, 64)        2112        ['activation_381[0][0]']         
                                                                                                  
 max_pooling1d_191 (MaxPooling1  (None, 4, 64)       0           ['spatial_dropout1d_191[0][0]']  
 D)                                                                                               
                                                                                                  
 batch_normalization_383 (Batch  (None, 4, 64)       256         ['conv1d_383[0][0]']             
 Normalization)                                                                                   
                                                                                                  
 add_191 (Add)                  (None, 4, 64)        0           ['max_pooling1d_191[0][0]',      
                                                                  'batch_normalization_383[0][0]']
                                                                                                  
 activation_383 (Activation)    (None, 4, 64)        0           ['add_191[0][0]']                
                                                                                                  
 global_average_pooling1d_63 (G  (None, 64)          0           ['activation_383[0][0]']         
 lobalAveragePooling1D)                                                                           
                                                                                                  
 global_max_pooling1d_63 (Globa  (None, 64)          0           ['activation_383[0][0]']         
 lMaxPooling1D)                                                                                   
                                                                                                  
 concatenate_63 (Concatenate)   (None, 128)          0           ['global_average_pooling1d_63[0][
                                                                 0]',                             
                                                                  'global_max_pooling1d_63[0][0]']
                                                                                                  
 dropout_126 (Dropout)          (None, 128)          0           ['concatenate_63[0][0]']         
                                                                                                  
 dense_63 (Dense)               (None, 128)          16512       ['dropout_126[0][0]']            
                                                                                                  
 dropout_127 (Dropout)          (None, 128)          0           ['dense_63[0][0]']               
                                                                                                  
 has_motion (Dense)             (None, 1)            129         ['dropout_127[0][0]']            
                                                                                                  
 gesture_probs (Dense)          (None, 2)            258         ['dropout_127[0][0]']            
                                                                                                  
 output (Concatenate)           (None, 3)            0           ['has_motion[0][0]',             
                                                                  'gesture_probs[0][0]']          
                                                                                                  
==================================================================================================
Total params: 39,971
Trainable params: 39,523
Non-trainable params: 448
…
