Model: "model_68"
__________________________________________________________________________________________________
 Layer (type)                   Output Shape         Param #     Connected to                     
==================================================================================================
 input (InputLayer)             [(None, 25, 61)]     0           []                               
                                                                                                  
 basic_preprocessing_35 (BasicP  (None, 25, 61)      0           ['input[0][0]']                  
 reprocessing)                                                                                    
                                                                                                  
 conv1d_408 (Conv1D)            (None, 25, 16)       2944        ['basic_preprocessing_35[0][0]'] 
                                                                                                  
 batch_normalization_408 (Batch  (None, 25, 16)      64          ['conv1d_408[0][0]']             
 Normalization)                                                                                   
                                                                                                  
 activation_408 (Activation)    (None, 25, 16)       0           ['batch_normalization_408[0][0]']
                                                                                                  
 spatial_dropout1d_204 (Spatial  (None, 25, 16)      0           ['activation_408[0][0]']         
 Dropout1D)                                                                                       
                                                                                                  
 conv1d_409 (Conv1D)            (None, 13, 16)       992         ['basic_preprocessing_35[0][0]'] 
                                                                                                  
 max_pooling1d_204 (MaxPooling1  (None, 13, 16)      0           ['spatial_dropout1d_204[0][0]']  
 D)                                                                                               
                                                                                                  
 batch_normalization_409 (Batch  (None, 13, 16)      64          ['conv1d_409[0][0]']             
 Normalization)                                                                                   
                                                                                                  
 add_204 (Add)                  (None, 13, 16)       0           ['max_pooling1d_204[0][0]',      
                                                                  'batch_normalization_409[0][0]']
                                                                                                  
 activation_409 (Activation)    (None, 13, 16)       0           ['add_204[0][0]']                
                                                                                                  
 conv1d_410 (Conv1D)            (None, 13, 32)       1568        ['activation_409[0][0]']         
                                                                                                  
 batch_normalization_410 (Batch  (None, 13, 32)      128         ['conv1d_410[0][0]']             
 Normalization)                                                                                   
                                                                                                  
 activation_410 (Activation)    (None, 13, 32)       0           ['batch_normalization_410[0][0]']
                                                                                                  
 spatial_dropout1d_205 (Spatial  (None, 13, 32)      0           ['activation_410[0][0]']         
 Dropout1D)                                                                                       
                                                                                                  
 conv1d_411 (Conv1D)            (None, 7, 32)        544         ['activation_409[0][0]']         
                                                                                                  
 max_pooling1d_205 (MaxPooling1  (None, 7, 32)       0           ['spatial_dropout1d_205[0][0]']  
 D)                                                                                               
                                                                                                  
 batch_normalization_411 (Batch  (None, 7, 32)       128         ['conv1d_411[0][0]']             
 Normalization)                                                                                   
                                                                                                  
 add_205 (Add)                  (None, 7, 32)        0           ['max_pooling1d_205[0][0]',      
                                                                  'batch_normalization_411[0][0]']
                                                                                                  
 activation_411 (Activation)    (None, 7, 32)        0           ['add_205[0][0]']                
                                                                                                  
 conv1d_412 (Conv1D)            (None, 7, 64)        6208        ['activation_411[0][0]']         
                                                                                                  
 batch_normalization_412 (Batch  (None, 7, 64)       256         ['conv1d_412[0][0]']             
 Normalization)                                                                                   
                                                                                                  
 activation_412 (Activation)    (None, 7, 64)        0           ['batch_normalization_412[0][0]']
                                                                                                  
 spatial_dropout1d_206 (Spatial  (None, 7, 64)       0           ['activation_412[0][0]']         
 Dropout1D)                                                                                       
                                                                                                  
 conv1d_413 (Conv1D)            (None, 4, 64)        2112        ['activation_411[0][0]']         
                                                                                                  
 max_pooling1d_206 (MaxPooling1  (None, 4, 64)       0           ['spatial_dropout1d_206[0][0]']  
 D)                                                                                               
                                                                                                  
 batch_normalization_413 (Batch  (None, 4, 64)       256         ['conv1d_413[0][0]']             
 Normalization)                                                                                   
                                                                                                  
 add_206 (Add)                  (None, 4, 64)        0           ['max_pooling1d_206[0][0]',      
                                                                  'batch_normalization_413[0][0]']
                                                                                                  
 activation_413 (Activation)    (None, 4, 64)        0           ['add_206[0][0]']                
                                                                                                  
 global_average_pooling1d_68 (G  (None, 64)          0           ['activation_413[0][0]']         
 lobalAveragePooling1D)                                                                           
                                                                                                  
 global_max_pooling1d_68 (Globa  (None, 64)          0           ['activation_413[0][0]']         
 lMaxPooling1D)                                                                                   
                                                                                                  
 concatenate_68 (Concatenate)   (None, 128)          0           ['global_average_pooling1d_68[0][
                                                                 0]',                             
                                                                  'global_max_pooling1d_68[0][0]']
                                                                                                  
 dropout_136 (Dropout)          (None, 128)          0           ['concatenate_68[0][0]']         
                                                                                                  
 dense_68 (Dense)               (None, 128)          16512       ['dropout_136[0][0]']            
                                                                                                  
 dropout_137 (Dropout)          (None, 128)          0           ['dense_68[0][0]']               
                                                                                                  
 has_motion (Dense)             (None, 1)            129         ['dropout_137[0][0]']            
                                                                                                  
 gesture_probs (Dense)          (None, 2)            258         ['dropout_137[0][0]']            
                                                                                                  
 output (Concatenate)           (None, 3)            0           ['has_motion[0][0]',             
                                                                  'gesture_probs[0][0]']          
                                                                                                  
==================================================================================================
Total params: 32,163
Trainable params: 31,715
Non-trainable params: 448
…
