Model: "model_100"
__________________________________________________________________________________________________
 Layer (type)                   Output Shape         Param #     Connected to                     
==================================================================================================
 input (InputLayer)             [(None, 25, 92)]     0           []                               
                                                                                                  
 enhanced_preprocessing_49 (Enh  (None, 25, 276)     0           ['input[0][0]']                  
 ancedPreprocessing)                                                                              
                                                                                                  
 conv1d_600 (Conv1D)            (None, 25, 16)       13264       ['enhanced_preprocessing_49[0][0]
                                                                 ']                               
                                                                                                  
 batch_normalization_600 (Batch  (None, 25, 16)      64          ['conv1d_600[0][0]']             
 Normalization)                                                                                   
                                                                                                  
 activation_600 (Activation)    (None, 25, 16)       0           ['batch_normalization_600[0][0]']
                                                                                                  
 spatial_dropout1d_300 (Spatial  (None, 25, 16)      0           ['activation_600[0][0]']         
 Dropout1D)                                                                                       
                                                                                                  
 conv1d_601 (Conv1D)            (None, 13, 16)       4432        ['enhanced_preprocessing_49[0][0]
                                                                 ']                               
                                                                                                  
 max_pooling1d_300 (MaxPooling1  (None, 13, 16)      0           ['spatial_dropout1d_300[0][0]']  
 D)                                                                                               
                                                                                                  
 batch_normalization_601 (Batch  (None, 13, 16)      64          ['conv1d_601[0][0]']             
 Normalization)                                                                                   
                                                                                                  
 add_300 (Add)                  (None, 13, 16)       0           ['max_pooling1d_300[0][0]',      
                                                                  'batch_normalization_601[0][0]']
                                                                                                  
 activation_601 (Activation)    (None, 13, 16)       0           ['add_300[0][0]']                
                                                                                                  
 conv1d_602 (Conv1D)            (None, 13, 32)       1568        ['activation_601[0][0]']         
                                                                                                  
 batch_normalization_602 (Batch  (None, 13, 32)      128         ['conv1d_602[0][0]']             
 Normalization)                                                                                   
                                                                                                  
 activation_602 (Activation)    (None, 13, 32)       0           ['batch_normalization_602[0][0]']
                                                                                                  
 spatial_dropout1d_301 (Spatial  (None, 13, 32)      0           ['activation_602[0][0]']         
 Dropout1D)                                                                                       
                                                                                                  
 conv1d_603 (Conv1D)            (None, 7, 32)        544         ['activation_601[0][0]']         
                                                                                                  
 max_pooling1d_301 (MaxPooling1  (None, 7, 32)       0           ['spatial_dropout1d_301[0][0]']  
 D)                                                                                               
                                                                                                  
 batch_normalization_603 (Batch  (None, 7, 32)       128         ['conv1d_603[0][0]']             
 Normalization)                                                                                   
                                                                                                  
 add_301 (Add)                  (None, 7, 32)        0           ['max_pooling1d_301[0][0]',      
                                                                  'batch_normalization_603[0][0]']
                                                                                                  
 activation_603 (Activation)    (None, 7, 32)        0           ['add_301[0][0]']                
                                                                                                  
 conv1d_604 (Conv1D)            (None, 7, 64)        6208        ['activation_603[0][0]']         
                                                                                                  
 batch_normalization_604 (Batch  (None, 7, 64)       256         ['conv1d_604[0][0]']             
 Normalization)                                                                                   
                                                                                                  
 activation_604 (Activation)    (None, 7, 64)        0           ['batch_normalization_604[0][0]']
                                                                                                  
 spatial_dropout1d_302 (Spatial  (None, 7, 64)       0           ['activation_604[0][0]']         
 Dropout1D)                                                                                       
                                                                                                  
 conv1d_605 (Conv1D)            (None, 4, 64)        2112        ['activation_603[0][0]']         
                                                                                                  
 max_pooling1d_302 (MaxPooling1  (None, 4, 64)       0           ['spatial_dropout1d_302[0][0]']  
 D)                                                                                               
                                                                                                  
 batch_normalization_605 (Batch  (None, 4, 64)       256         ['conv1d_605[0][0]']             
 Normalization)                                                                                   
                                                                                                  
 add_302 (Add)                  (None, 4, 64)        0           ['max_pooling1d_302[0][0]',      
                                                                  'batch_normalization_605[0][0]']
                                                                                                  
 activation_605 (Activation)    (None, 4, 64)        0           ['add_302[0][0]']                
                                                                                                  
 global_average_pooling1d_100 (  (None, 64)          0           ['activation_605[0][0]']         
 GlobalAveragePooling1D)                                                                          
                                                                                                  
 global_max_pooling1d_100 (Glob  (None, 64)          0           ['activation_605[0][0]']         
 alMaxPooling1D)                                                                                  
                                                                                                  
 concatenate_100 (Concatenate)  (None, 128)          0           ['global_average_pooling1d_100[0]
                                                                 [0]',                            
                                                                  'global_max_pooling1d_100[0][0]'
                                                                 ]                                
                                                                                                  
 dropout_200 (Dropout)          (None, 128)          0           ['concatenate_100[0][0]']        
                                                                                                  
 dense_100 (Dense)              (None, 64)           8256        ['dropout_200[0][0]']            
                                                                                                  
 dropout_201 (Dropout)          (None, 64)           0           ['dense_100[0][0]']              
                                                                                                  
 has_motion (Dense)             (None, 1)            65          ['dropout_201[0][0]']            
                                                                                                  
 gesture_probs (Dense)          (None, 2)            130         ['dropout_201[0][0]']            
                                                                                                  
 output (Concatenate)           (None, 3)            0           ['has_motion[0][0]',             
                                                                  'gesture_probs[0][0]']          
                                                                                                  
==================================================================================================
Total params: 37,475
Trainable params: 37,027
Non-trainable params: 448
…
