Model: "model_48"
__________________________________________________________________________________________________
 Layer (type)                   Output Shape         Param #     Connected to                     
==================================================================================================
 input (InputLayer)             [(None, 25, 61)]     0           []                               
                                                                                                  
 basic_preprocessing_24 (BasicP  (None, 25, 61)      0           ['input[0][0]']                  
 reprocessing)                                                                                    
                                                                                                  
 conv1d_288 (Conv1D)            (None, 25, 16)       2944        ['basic_preprocessing_24[0][0]'] 
                                                                                                  
 batch_normalization_288 (Batch  (None, 25, 16)      64          ['conv1d_288[0][0]']             
 Normalization)                                                                                   
                                                                                                  
 activation_288 (Activation)    (None, 25, 16)       0           ['batch_normalization_288[0][0]']
                                                                                                  
 spatial_dropout1d_144 (Spatial  (None, 25, 16)      0           ['activation_288[0][0]']         
 Dropout1D)                                                                                       
                                                                                                  
 conv1d_289 (Conv1D)            (None, 13, 16)       992         ['basic_preprocessing_24[0][0]'] 
                                                                                                  
 max_pooling1d_144 (MaxPooling1  (None, 13, 16)      0           ['spatial_dropout1d_144[0][0]']  
 D)                                                                                               
                                                                                                  
 batch_normalization_289 (Batch  (None, 13, 16)      64          ['conv1d_289[0][0]']             
 Normalization)                                                                                   
                                                                                                  
 add_144 (Add)                  (None, 13, 16)       0           ['max_pooling1d_144[0][0]',      
                                                                  'batch_normalization_289[0][0]']
                                                                                                  
 activation_289 (Activation)    (None, 13, 16)       0           ['add_144[0][0]']                
                                                                                                  
 conv1d_290 (Conv1D)            (None, 13, 32)       1568        ['activation_289[0][0]']         
                                                                                                  
 batch_normalization_290 (Batch  (None, 13, 32)      128         ['conv1d_290[0][0]']             
 Normalization)                                                                                   
                                                                                                  
 activation_290 (Activation)    (None, 13, 32)       0           ['batch_normalization_290[0][0]']
                                                                                                  
 spatial_dropout1d_145 (Spatial  (None, 13, 32)      0           ['activation_290[0][0]']         
 Dropout1D)                                                                                       
                                                                                                  
 conv1d_291 (Conv1D)            (None, 7, 32)        544         ['activation_289[0][0]']         
                                                                                                  
 max_pooling1d_145 (MaxPooling1  (None, 7, 32)       0           ['spatial_dropout1d_145[0][0]']  
 D)                                                                                               
                                                                                                  
 batch_normalization_291 (Batch  (None, 7, 32)       128         ['conv1d_291[0][0]']             
 Normalization)                                                                                   
                                                                                                  
 add_145 (Add)                  (None, 7, 32)        0           ['max_pooling1d_145[0][0]',      
                                                                  'batch_normalization_291[0][0]']
                                                                                                  
 activation_291 (Activation)    (None, 7, 32)        0           ['add_145[0][0]']                
                                                                                                  
 conv1d_292 (Conv1D)            (None, 7, 64)        6208        ['activation_291[0][0]']         
                                                                                                  
 batch_normalization_292 (Batch  (None, 7, 64)       256         ['conv1d_292[0][0]']             
 Normalization)                                                                                   
                                                                                                  
 activation_292 (Activation)    (None, 7, 64)        0           ['batch_normalization_292[0][0]']
                                                                                                  
 spatial_dropout1d_146 (Spatial  (None, 7, 64)       0           ['activation_292[0][0]']         
 Dropout1D)                                                                                       
                                                                                                  
 conv1d_293 (Conv1D)            (None, 4, 64)        2112        ['activation_291[0][0]']         
                                                                                                  
 max_pooling1d_146 (MaxPooling1  (None, 4, 64)       0           ['spatial_dropout1d_146[0][0]']  
 D)                                                                                               
                                                                                                  
 batch_normalization_293 (Batch  (None, 4, 64)       256         ['conv1d_293[0][0]']             
 Normalization)                                                                                   
                                                                                                  
 add_146 (Add)                  (None, 4, 64)        0           ['max_pooling1d_146[0][0]',      
                                                                  'batch_normalization_293[0][0]']
                                                                                                  
 activation_293 (Activation)    (None, 4, 64)        0           ['add_146[0][0]']                
                                                                                                  
 global_average_pooling1d_48 (G  (None, 64)          0           ['activation_293[0][0]']         
 lobalAveragePooling1D)                                                                           
                                                                                                  
 global_max_pooling1d_48 (Globa  (None, 64)          0           ['activation_293[0][0]']         
 lMaxPooling1D)                                                                                   
                                                                                                  
 concatenate_48 (Concatenate)   (None, 128)          0           ['global_average_pooling1d_48[0][
                                                                 0]',                             
                                                                  'global_max_pooling1d_48[0][0]']
                                                                                                  
 dropout_96 (Dropout)           (None, 128)          0           ['concatenate_48[0][0]']         
                                                                                                  
 dense_48 (Dense)               (None, 64)           8256        ['dropout_96[0][0]']             
                                                                                                  
 dropout_97 (Dropout)           (None, 64)           0           ['dense_48[0][0]']               
                                                                                                  
 has_motion (Dense)             (None, 1)            65          ['dropout_97[0][0]']             
                                                                                                  
 gesture_probs (Dense)          (None, 2)            130         ['dropout_97[0][0]']             
                                                                                                  
 output (Concatenate)           (None, 3)            0           ['has_motion[0][0]',             
                                                                  'gesture_probs[0][0]']          
                                                                                                  
==================================================================================================
Total params: 23,715
Trainable params: 23,267
Non-trainable params: 448
…
