Model: "model_19"
__________________________________________________________________________________________________
 Layer (type)                   Output Shape         Param #     Connected to                     
==================================================================================================
 input (InputLayer)             [(None, 25, 41)]     0           []                               
                                                                                                  
 basic_preprocessing_10 (BasicP  (None, 25, 41)      0           ['input[0][0]']                  
 reprocessing)                                                                                    
                                                                                                  
 conv1d_114 (Conv1D)            (None, 25, 16)       1984        ['basic_preprocessing_10[0][0]'] 
                                                                                                  
 batch_normalization_114 (Batch  (None, 25, 16)      64          ['conv1d_114[0][0]']             
 Normalization)                                                                                   
                                                                                                  
 activation_114 (Activation)    (None, 25, 16)       0           ['batch_normalization_114[0][0]']
                                                                                                  
 spatial_dropout1d_57 (SpatialD  (None, 25, 16)      0           ['activation_114[0][0]']         
 ropout1D)                                                                                        
                                                                                                  
 conv1d_115 (Conv1D)            (None, 13, 16)       672         ['basic_preprocessing_10[0][0]'] 
                                                                                                  
 max_pooling1d_57 (MaxPooling1D  (None, 13, 16)      0           ['spatial_dropout1d_57[0][0]']   
 )                                                                                                
                                                                                                  
 batch_normalization_115 (Batch  (None, 13, 16)      64          ['conv1d_115[0][0]']             
 Normalization)                                                                                   
                                                                                                  
 add_57 (Add)                   (None, 13, 16)       0           ['max_pooling1d_57[0][0]',       
                                                                  'batch_normalization_115[0][0]']
                                                                                                  
 activation_115 (Activation)    (None, 13, 16)       0           ['add_57[0][0]']                 
                                                                                                  
 conv1d_116 (Conv1D)            (None, 13, 32)       1568        ['activation_115[0][0]']         
                                                                                                  
 batch_normalization_116 (Batch  (None, 13, 32)      128         ['conv1d_116[0][0]']             
 Normalization)                                                                                   
                                                                                                  
 activation_116 (Activation)    (None, 13, 32)       0           ['batch_normalization_116[0][0]']
                                                                                                  
 spatial_dropout1d_58 (SpatialD  (None, 13, 32)      0           ['activation_116[0][0]']         
 ropout1D)                                                                                        
                                                                                                  
 conv1d_117 (Conv1D)            (None, 7, 32)        544         ['activation_115[0][0]']         
                                                                                                  
 max_pooling1d_58 (MaxPooling1D  (None, 7, 32)       0           ['spatial_dropout1d_58[0][0]']   
 )                                                                                                
                                                                                                  
 batch_normalization_117 (Batch  (None, 7, 32)       128         ['conv1d_117[0][0]']             
 Normalization)                                                                                   
                                                                                                  
 add_58 (Add)                   (None, 7, 32)        0           ['max_pooling1d_58[0][0]',       
                                                                  'batch_normalization_117[0][0]']
                                                                                                  
 activation_117 (Activation)    (None, 7, 32)        0           ['add_58[0][0]']                 
                                                                                                  
 conv1d_118 (Conv1D)            (None, 7, 64)        6208        ['activation_117[0][0]']         
                                                                                                  
 batch_normalization_118 (Batch  (None, 7, 64)       256         ['conv1d_118[0][0]']             
 Normalization)                                                                                   
                                                                                                  
 activation_118 (Activation)    (None, 7, 64)        0           ['batch_normalization_118[0][0]']
                                                                                                  
 spatial_dropout1d_59 (SpatialD  (None, 7, 64)       0           ['activation_118[0][0]']         
 ropout1D)                                                                                        
                                                                                                  
 conv1d_119 (Conv1D)            (None, 4, 64)        2112        ['activation_117[0][0]']         
                                                                                                  
 max_pooling1d_59 (MaxPooling1D  (None, 4, 64)       0           ['spatial_dropout1d_59[0][0]']   
 )                                                                                                
                                                                                                  
 batch_normalization_119 (Batch  (None, 4, 64)       256         ['conv1d_119[0][0]']             
 Normalization)                                                                                   
                                                                                                  
 add_59 (Add)                   (None, 4, 64)        0           ['max_pooling1d_59[0][0]',       
                                                                  'batch_normalization_119[0][0]']
                                                                                                  
 activation_119 (Activation)    (None, 4, 64)        0           ['add_59[0][0]']                 
                                                                                                  
 global_average_pooling1d_19 (G  (None, 64)          0           ['activation_119[0][0]']         
 lobalAveragePooling1D)                                                                           
                                                                                                  
 global_max_pooling1d_19 (Globa  (None, 64)          0           ['activation_119[0][0]']         
 lMaxPooling1D)                                                                                   
                                                                                                  
 concatenate_19 (Concatenate)   (None, 128)          0           ['global_average_pooling1d_19[0][
                                                                 0]',                             
                                                                  'global_max_pooling1d_19[0][0]']
                                                                                                  
 dropout_38 (Dropout)           (None, 128)          0           ['concatenate_19[0][0]']         
                                                                                                  
 dense_19 (Dense)               (None, 128)          16512       ['dropout_38[0][0]']             
                                                                                                  
 dropout_39 (Dropout)           (None, 128)          0           ['dense_19[0][0]']               
                                                                                                  
 has_motion (Dense)             (None, 1)            129         ['dropout_39[0][0]']             
                                                                                                  
 gesture_probs (Dense)          (None, 2)            258         ['dropout_39[0][0]']             
                                                                                                  
 output (Concatenate)           (None, 3)            0           ['has_motion[0][0]',             
                                                                  'gesture_probs[0][0]']          
                                                                                                  
==================================================================================================
Total params: 30,883
Trainable params: 30,435
Non-trainable params: 448
…
