Model: "model_41"
__________________________________________________________________________________________________
 Layer (type)                   Output Shape         Param #     Connected to                     
==================================================================================================
 input (InputLayer)             [(None, 25, 41)]     0           []                               
                                                                                                  
 enhanced_preprocessing_20 (Enh  (None, 25, 123)     0           ['input[0][0]']                  
 ancedPreprocessing)                                                                              
                                                                                                  
 conv1d_246 (Conv1D)            (None, 25, 48)       17760       ['enhanced_preprocessing_20[0][0]
                                                                 ']                               
                                                                                                  
 batch_normalization_246 (Batch  (None, 25, 48)      192         ['conv1d_246[0][0]']             
 Normalization)                                                                                   
                                                                                                  
 activation_246 (Activation)    (None, 25, 48)       0           ['batch_normalization_246[0][0]']
                                                                                                  
 spatial_dropout1d_123 (Spatial  (None, 25, 48)      0           ['activation_246[0][0]']         
 Dropout1D)                                                                                       
                                                                                                  
 conv1d_247 (Conv1D)            (None, 13, 48)       5952        ['enhanced_preprocessing_20[0][0]
                                                                 ']                               
                                                                                                  
 max_pooling1d_123 (MaxPooling1  (None, 13, 48)      0           ['spatial_dropout1d_123[0][0]']  
 D)                                                                                               
                                                                                                  
 batch_normalization_247 (Batch  (None, 13, 48)      192         ['conv1d_247[0][0]']             
 Normalization)                                                                                   
                                                                                                  
 add_123 (Add)                  (None, 13, 48)       0           ['max_pooling1d_123[0][0]',      
                                                                  'batch_normalization_247[0][0]']
                                                                                                  
 activation_247 (Activation)    (None, 13, 48)       0           ['add_123[0][0]']                
                                                                                                  
 conv1d_248 (Conv1D)            (None, 13, 96)       13920       ['activation_247[0][0]']         
                                                                                                  
 batch_normalization_248 (Batch  (None, 13, 96)      384         ['conv1d_248[0][0]']             
 Normalization)                                                                                   
                                                                                                  
 activation_248 (Activation)    (None, 13, 96)       0           ['batch_normalization_248[0][0]']
                                                                                                  
 spatial_dropout1d_124 (Spatial  (None, 13, 96)      0           ['activation_248[0][0]']         
 Dropout1D)                                                                                       
                                                                                                  
 conv1d_249 (Conv1D)            (None, 7, 96)        4704        ['activation_247[0][0]']         
                                                                                                  
 max_pooling1d_124 (MaxPooling1  (None, 7, 96)       0           ['spatial_dropout1d_124[0][0]']  
 D)                                                                                               
                                                                                                  
 batch_normalization_249 (Batch  (None, 7, 96)       384         ['conv1d_249[0][0]']             
 Normalization)                                                                                   
                                                                                                  
 add_124 (Add)                  (None, 7, 96)        0           ['max_pooling1d_124[0][0]',      
                                                                  'batch_normalization_249[0][0]']
                                                                                                  
 activation_249 (Activation)    (None, 7, 96)        0           ['add_124[0][0]']                
                                                                                                  
 conv1d_250 (Conv1D)            (None, 7, 192)       55488       ['activation_249[0][0]']         
                                                                                                  
 batch_normalization_250 (Batch  (None, 7, 192)      768         ['conv1d_250[0][0]']             
 Normalization)                                                                                   
                                                                                                  
 activation_250 (Activation)    (None, 7, 192)       0           ['batch_normalization_250[0][0]']
                                                                                                  
 spatial_dropout1d_125 (Spatial  (None, 7, 192)      0           ['activation_250[0][0]']         
 Dropout1D)                                                                                       
                                                                                                  
 conv1d_251 (Conv1D)            (None, 4, 192)       18624       ['activation_249[0][0]']         
                                                                                                  
 max_pooling1d_125 (MaxPooling1  (None, 4, 192)      0           ['spatial_dropout1d_125[0][0]']  
 D)                                                                                               
                                                                                                  
 batch_normalization_251 (Batch  (None, 4, 192)      768         ['conv1d_251[0][0]']             
 Normalization)                                                                                   
                                                                                                  
 add_125 (Add)                  (None, 4, 192)       0           ['max_pooling1d_125[0][0]',      
                                                                  'batch_normalization_251[0][0]']
                                                                                                  
 activation_251 (Activation)    (None, 4, 192)       0           ['add_125[0][0]']                
                                                                                                  
 global_average_pooling1d_41 (G  (None, 192)         0           ['activation_251[0][0]']         
 lobalAveragePooling1D)                                                                           
                                                                                                  
 global_max_pooling1d_41 (Globa  (None, 192)         0           ['activation_251[0][0]']         
 lMaxPooling1D)                                                                                   
                                                                                                  
 concatenate_41 (Concatenate)   (None, 384)          0           ['global_average_pooling1d_41[0][
                                                                 0]',                             
                                                                  'global_max_pooling1d_41[0][0]']
                                                                                                  
 dropout_82 (Dropout)           (None, 384)          0           ['concatenate_41[0][0]']         
                                                                                                  
 dense_41 (Dense)               (None, 128)          49280       ['dropout_82[0][0]']             
                                                                                                  
 dropout_83 (Dropout)           (None, 128)          0           ['dense_41[0][0]']               
                                                                                                  
 has_motion (Dense)             (None, 1)            129         ['dropout_83[0][0]']             
                                                                                                  
 gesture_probs (Dense)          (None, 2)            258         ['dropout_83[0][0]']             
                                                                                                  
 output (Concatenate)           (None, 3)            0           ['has_motion[0][0]',             
                                                                  'gesture_probs[0][0]']          
                                                                                                  
==================================================================================================
Total params: 168,803
Trainable params: 167,459
Non-trainable params: 1,344
…
