Model: "model_45"
__________________________________________________________________________________________________
 Layer (type)                   Output Shape         Param #     Connected to                     
==================================================================================================
 input (InputLayer)             [(None, 25, 41)]     0           []                               
                                                                                                  
 enhanced_preprocessing_21 (Enh  (None, 25, 123)     0           ['input[0][0]']                  
 ancedPreprocessing)                                                                              
                                                                                                  
 conv1d_270 (Conv1D)            (None, 25, 48)       17760       ['enhanced_preprocessing_21[0][0]
                                                                 ']                               
                                                                                                  
 batch_normalization_270 (Batch  (None, 25, 48)      192         ['conv1d_270[0][0]']             
 Normalization)                                                                                   
                                                                                                  
 activation_270 (Activation)    (None, 25, 48)       0           ['batch_normalization_270[0][0]']
                                                                                                  
 spatial_dropout1d_135 (Spatial  (None, 25, 48)      0           ['activation_270[0][0]']         
 Dropout1D)                                                                                       
                                                                                                  
 conv1d_271 (Conv1D)            (None, 13, 48)       5952        ['enhanced_preprocessing_21[0][0]
                                                                 ']                               
                                                                                                  
 max_pooling1d_135 (MaxPooling1  (None, 13, 48)      0           ['spatial_dropout1d_135[0][0]']  
 D)                                                                                               
                                                                                                  
 batch_normalization_271 (Batch  (None, 13, 48)      192         ['conv1d_271[0][0]']             
 Normalization)                                                                                   
                                                                                                  
 add_135 (Add)                  (None, 13, 48)       0           ['max_pooling1d_135[0][0]',      
                                                                  'batch_normalization_271[0][0]']
                                                                                                  
 activation_271 (Activation)    (None, 13, 48)       0           ['add_135[0][0]']                
                                                                                                  
 conv1d_272 (Conv1D)            (None, 13, 96)       13920       ['activation_271[0][0]']         
                                                                                                  
 batch_normalization_272 (Batch  (None, 13, 96)      384         ['conv1d_272[0][0]']             
 Normalization)                                                                                   
                                                                                                  
 activation_272 (Activation)    (None, 13, 96)       0           ['batch_normalization_272[0][0]']
                                                                                                  
 spatial_dropout1d_136 (Spatial  (None, 13, 96)      0           ['activation_272[0][0]']         
 Dropout1D)                                                                                       
                                                                                                  
 conv1d_273 (Conv1D)            (None, 7, 96)        4704        ['activation_271[0][0]']         
                                                                                                  
 max_pooling1d_136 (MaxPooling1  (None, 7, 96)       0           ['spatial_dropout1d_136[0][0]']  
 D)                                                                                               
                                                                                                  
 batch_normalization_273 (Batch  (None, 7, 96)       384         ['conv1d_273[0][0]']             
 Normalization)                                                                                   
                                                                                                  
 add_136 (Add)                  (None, 7, 96)        0           ['max_pooling1d_136[0][0]',      
                                                                  'batch_normalization_273[0][0]']
                                                                                                  
 activation_273 (Activation)    (None, 7, 96)        0           ['add_136[0][0]']                
                                                                                                  
 conv1d_274 (Conv1D)            (None, 7, 192)       55488       ['activation_273[0][0]']         
                                                                                                  
 batch_normalization_274 (Batch  (None, 7, 192)      768         ['conv1d_274[0][0]']             
 Normalization)                                                                                   
                                                                                                  
 activation_274 (Activation)    (None, 7, 192)       0           ['batch_normalization_274[0][0]']
                                                                                                  
 spatial_dropout1d_137 (Spatial  (None, 7, 192)      0           ['activation_274[0][0]']         
 Dropout1D)                                                                                       
                                                                                                  
 conv1d_275 (Conv1D)            (None, 4, 192)       18624       ['activation_273[0][0]']         
                                                                                                  
 max_pooling1d_137 (MaxPooling1  (None, 4, 192)      0           ['spatial_dropout1d_137[0][0]']  
 D)                                                                                               
                                                                                                  
 batch_normalization_275 (Batch  (None, 4, 192)      768         ['conv1d_275[0][0]']             
 Normalization)                                                                                   
                                                                                                  
 add_137 (Add)                  (None, 4, 192)       0           ['max_pooling1d_137[0][0]',      
                                                                  'batch_normalization_275[0][0]']
                                                                                                  
 activation_275 (Activation)    (None, 4, 192)       0           ['add_137[0][0]']                
                                                                                                  
 global_average_pooling1d_45 (G  (None, 192)         0           ['activation_275[0][0]']         
 lobalAveragePooling1D)                                                                           
                                                                                                  
 global_max_pooling1d_45 (Globa  (None, 192)         0           ['activation_275[0][0]']         
 lMaxPooling1D)                                                                                   
                                                                                                  
 concatenate_45 (Concatenate)   (None, 384)          0           ['global_average_pooling1d_45[0][
                                                                 0]',                             
                                                                  'global_max_pooling1d_45[0][0]']
                                                                                                  
 dropout_90 (Dropout)           (None, 384)          0           ['concatenate_45[0][0]']         
                                                                                                  
 dense_45 (Dense)               (None, 128)          49280       ['dropout_90[0][0]']             
                                                                                                  
 dropout_91 (Dropout)           (None, 128)          0           ['dense_45[0][0]']               
                                                                                                  
 has_motion (Dense)             (None, 1)            129         ['dropout_91[0][0]']             
                                                                                                  
 gesture_probs (Dense)          (None, 2)            258         ['dropout_91[0][0]']             
                                                                                                  
 output (Concatenate)           (None, 3)            0           ['has_motion[0][0]',             
                                                                  'gesture_probs[0][0]']          
                                                                                                  
==================================================================================================
Total params: 168,803
Trainable params: 167,459
Non-trainable params: 1,344
…
