Model: "model_35"
__________________________________________________________________________________________________
 Layer (type)                   Output Shape         Param #     Connected to                     
==================================================================================================
 input (InputLayer)             [(None, 25, 41)]     0           []                               
                                                                                                  
 enhanced_preprocessing_17 (Enh  (None, 25, 123)     0           ['input[0][0]']                  
 ancedPreprocessing)                                                                              
                                                                                                  
 conv1d_210 (Conv1D)            (None, 25, 48)       17760       ['enhanced_preprocessing_17[0][0]
                                                                 ']                               
                                                                                                  
 batch_normalization_210 (Batch  (None, 25, 48)      192         ['conv1d_210[0][0]']             
 Normalization)                                                                                   
                                                                                                  
 activation_210 (Activation)    (None, 25, 48)       0           ['batch_normalization_210[0][0]']
                                                                                                  
 spatial_dropout1d_105 (Spatial  (None, 25, 48)      0           ['activation_210[0][0]']         
 Dropout1D)                                                                                       
                                                                                                  
 conv1d_211 (Conv1D)            (None, 13, 48)       5952        ['enhanced_preprocessing_17[0][0]
                                                                 ']                               
                                                                                                  
 max_pooling1d_105 (MaxPooling1  (None, 13, 48)      0           ['spatial_dropout1d_105[0][0]']  
 D)                                                                                               
                                                                                                  
 batch_normalization_211 (Batch  (None, 13, 48)      192         ['conv1d_211[0][0]']             
 Normalization)                                                                                   
                                                                                                  
 add_105 (Add)                  (None, 13, 48)       0           ['max_pooling1d_105[0][0]',      
                                                                  'batch_normalization_211[0][0]']
                                                                                                  
 activation_211 (Activation)    (None, 13, 48)       0           ['add_105[0][0]']                
                                                                                                  
 conv1d_212 (Conv1D)            (None, 13, 96)       13920       ['activation_211[0][0]']         
                                                                                                  
 batch_normalization_212 (Batch  (None, 13, 96)      384         ['conv1d_212[0][0]']             
 Normalization)                                                                                   
                                                                                                  
 activation_212 (Activation)    (None, 13, 96)       0           ['batch_normalization_212[0][0]']
                                                                                                  
 spatial_dropout1d_106 (Spatial  (None, 13, 96)      0           ['activation_212[0][0]']         
 Dropout1D)                                                                                       
                                                                                                  
 conv1d_213 (Conv1D)            (None, 7, 96)        4704        ['activation_211[0][0]']         
                                                                                                  
 max_pooling1d_106 (MaxPooling1  (None, 7, 96)       0           ['spatial_dropout1d_106[0][0]']  
 D)                                                                                               
                                                                                                  
 batch_normalization_213 (Batch  (None, 7, 96)       384         ['conv1d_213[0][0]']             
 Normalization)                                                                                   
                                                                                                  
 add_106 (Add)                  (None, 7, 96)        0           ['max_pooling1d_106[0][0]',      
                                                                  'batch_normalization_213[0][0]']
                                                                                                  
 activation_213 (Activation)    (None, 7, 96)        0           ['add_106[0][0]']                
                                                                                                  
 conv1d_214 (Conv1D)            (None, 7, 192)       55488       ['activation_213[0][0]']         
                                                                                                  
 batch_normalization_214 (Batch  (None, 7, 192)      768         ['conv1d_214[0][0]']             
 Normalization)                                                                                   
                                                                                                  
 activation_214 (Activation)    (None, 7, 192)       0           ['batch_normalization_214[0][0]']
                                                                                                  
 spatial_dropout1d_107 (Spatial  (None, 7, 192)      0           ['activation_214[0][0]']         
 Dropout1D)                                                                                       
                                                                                                  
 conv1d_215 (Conv1D)            (None, 4, 192)       18624       ['activation_213[0][0]']         
                                                                                                  
 max_pooling1d_107 (MaxPooling1  (None, 4, 192)      0           ['spatial_dropout1d_107[0][0]']  
 D)                                                                                               
                                                                                                  
 batch_normalization_215 (Batch  (None, 4, 192)      768         ['conv1d_215[0][0]']             
 Normalization)                                                                                   
                                                                                                  
 add_107 (Add)                  (None, 4, 192)       0           ['max_pooling1d_107[0][0]',      
                                                                  'batch_normalization_215[0][0]']
                                                                                                  
 activation_215 (Activation)    (None, 4, 192)       0           ['add_107[0][0]']                
                                                                                                  
 global_average_pooling1d_35 (G  (None, 192)         0           ['activation_215[0][0]']         
 lobalAveragePooling1D)                                                                           
                                                                                                  
 global_max_pooling1d_35 (Globa  (None, 192)         0           ['activation_215[0][0]']         
 lMaxPooling1D)                                                                                   
                                                                                                  
 concatenate_35 (Concatenate)   (None, 384)          0           ['global_average_pooling1d_35[0][
                                                                 0]',                             
                                                                  'global_max_pooling1d_35[0][0]']
                                                                                                  
 dropout_70 (Dropout)           (None, 384)          0           ['concatenate_35[0][0]']         
                                                                                                  
 dense_35 (Dense)               (None, 64)           24640       ['dropout_70[0][0]']             
                                                                                                  
 dropout_71 (Dropout)           (None, 64)           0           ['dense_35[0][0]']               
                                                                                                  
 has_motion (Dense)             (None, 1)            65          ['dropout_71[0][0]']             
                                                                                                  
 gesture_probs (Dense)          (None, 2)            130         ['dropout_71[0][0]']             
                                                                                                  
 output (Concatenate)           (None, 3)            0           ['has_motion[0][0]',             
                                                                  'gesture_probs[0][0]']          
                                                                                                  
==================================================================================================
Total params: 143,971
Trainable params: 142,627
Non-trainable params: 1,344
…
