Model: "model_49"
__________________________________________________________________________________________________
 Layer (type)                   Output Shape         Param #     Connected to                     
==================================================================================================
 input (InputLayer)             [(None, 25, 61)]     0           []                               
                                                                                                  
 basic_preprocessing_25 (BasicP  (None, 25, 61)      0           ['input[0][0]']                  
 reprocessing)                                                                                    
                                                                                                  
 conv1d_294 (Conv1D)            (None, 25, 16)       2944        ['basic_preprocessing_25[0][0]'] 
                                                                                                  
 batch_normalization_294 (Batch  (None, 25, 16)      64          ['conv1d_294[0][0]']             
 Normalization)                                                                                   
                                                                                                  
 activation_294 (Activation)    (None, 25, 16)       0           ['batch_normalization_294[0][0]']
                                                                                                  
 spatial_dropout1d_147 (Spatial  (None, 25, 16)      0           ['activation_294[0][0]']         
 Dropout1D)                                                                                       
                                                                                                  
 conv1d_295 (Conv1D)            (None, 13, 16)       992         ['basic_preprocessing_25[0][0]'] 
                                                                                                  
 max_pooling1d_147 (MaxPooling1  (None, 13, 16)      0           ['spatial_dropout1d_147[0][0]']  
 D)                                                                                               
                                                                                                  
 batch_normalization_295 (Batch  (None, 13, 16)      64          ['conv1d_295[0][0]']             
 Normalization)                                                                                   
                                                                                                  
 add_147 (Add)                  (None, 13, 16)       0           ['max_pooling1d_147[0][0]',      
                                                                  'batch_normalization_295[0][0]']
                                                                                                  
 activation_295 (Activation)    (None, 13, 16)       0           ['add_147[0][0]']                
                                                                                                  
 conv1d_296 (Conv1D)            (None, 13, 32)       1568        ['activation_295[0][0]']         
                                                                                                  
 batch_normalization_296 (Batch  (None, 13, 32)      128         ['conv1d_296[0][0]']             
 Normalization)                                                                                   
                                                                                                  
 activation_296 (Activation)    (None, 13, 32)       0           ['batch_normalization_296[0][0]']
                                                                                                  
 spatial_dropout1d_148 (Spatial  (None, 13, 32)      0           ['activation_296[0][0]']         
 Dropout1D)                                                                                       
                                                                                                  
 conv1d_297 (Conv1D)            (None, 7, 32)        544         ['activation_295[0][0]']         
                                                                                                  
 max_pooling1d_148 (MaxPooling1  (None, 7, 32)       0           ['spatial_dropout1d_148[0][0]']  
 D)                                                                                               
                                                                                                  
 batch_normalization_297 (Batch  (None, 7, 32)       128         ['conv1d_297[0][0]']             
 Normalization)                                                                                   
                                                                                                  
 add_148 (Add)                  (None, 7, 32)        0           ['max_pooling1d_148[0][0]',      
                                                                  'batch_normalization_297[0][0]']
                                                                                                  
 activation_297 (Activation)    (None, 7, 32)        0           ['add_148[0][0]']                
                                                                                                  
 conv1d_298 (Conv1D)            (None, 7, 64)        6208        ['activation_297[0][0]']         
                                                                                                  
 batch_normalization_298 (Batch  (None, 7, 64)       256         ['conv1d_298[0][0]']             
 Normalization)                                                                                   
                                                                                                  
 activation_298 (Activation)    (None, 7, 64)        0           ['batch_normalization_298[0][0]']
                                                                                                  
 spatial_dropout1d_149 (Spatial  (None, 7, 64)       0           ['activation_298[0][0]']         
 Dropout1D)                                                                                       
                                                                                                  
 conv1d_299 (Conv1D)            (None, 4, 64)        2112        ['activation_297[0][0]']         
                                                                                                  
 max_pooling1d_149 (MaxPooling1  (None, 4, 64)       0           ['spatial_dropout1d_149[0][0]']  
 D)                                                                                               
                                                                                                  
 batch_normalization_299 (Batch  (None, 4, 64)       256         ['conv1d_299[0][0]']             
 Normalization)                                                                                   
                                                                                                  
 add_149 (Add)                  (None, 4, 64)        0           ['max_pooling1d_149[0][0]',      
                                                                  'batch_normalization_299[0][0]']
                                                                                                  
 activation_299 (Activation)    (None, 4, 64)        0           ['add_149[0][0]']                
                                                                                                  
 global_average_pooling1d_49 (G  (None, 64)          0           ['activation_299[0][0]']         
 lobalAveragePooling1D)                                                                           
                                                                                                  
 global_max_pooling1d_49 (Globa  (None, 64)          0           ['activation_299[0][0]']         
 lMaxPooling1D)                                                                                   
                                                                                                  
 concatenate_49 (Concatenate)   (None, 128)          0           ['global_average_pooling1d_49[0][
                                                                 0]',                             
                                                                  'global_max_pooling1d_49[0][0]']
                                                                                                  
 dropout_98 (Dropout)           (None, 128)          0           ['concatenate_49[0][0]']         
                                                                                                  
 dense_49 (Dense)               (None, 64)           8256        ['dropout_98[0][0]']             
                                                                                                  
 dropout_99 (Dropout)           (None, 64)           0           ['dense_49[0][0]']               
                                                                                                  
 has_motion (Dense)             (None, 1)            65          ['dropout_99[0][0]']             
                                                                                                  
 gesture_probs (Dense)          (None, 2)            130         ['dropout_99[0][0]']             
                                                                                                  
 output (Concatenate)           (None, 3)            0           ['has_motion[0][0]',             
                                                                  'gesture_probs[0][0]']          
                                                                                                  
==================================================================================================
Total params: 23,715
Trainable params: 23,267
Non-trainable params: 448
…
