Model: "model_2"
__________________________________________________________________________________________________
 Layer (type)                   Output Shape         Param #     Connected to                     
==================================================================================================
 input (InputLayer)             [(None, 25, 92)]     0           []                               
                                                                                                  
 basic_preprocessing_2 (BasicPr  (None, 25, 92)      0           ['input[0][0]']                  
 eprocessing)                                                                                     
                                                                                                  
 conv1d_12 (Conv1D)             (None, 25, 16)       4432        ['basic_preprocessing_2[0][0]']  
                                                                                                  
 batch_normalization_12 (BatchN  (None, 25, 16)      64          ['conv1d_12[0][0]']              
 ormalization)                                                                                    
                                                                                                  
 activation_12 (Activation)     (None, 25, 16)       0           ['batch_normalization_12[0][0]'] 
                                                                                                  
 spatial_dropout1d_6 (SpatialDr  (None, 25, 16)      0           ['activation_12[0][0]']          
 opout1D)                                                                                         
                                                                                                  
 conv1d_13 (Conv1D)             (None, 13, 16)       1488        ['basic_preprocessing_2[0][0]']  
                                                                                                  
 max_pooling1d_6 (MaxPooling1D)  (None, 13, 16)      0           ['spatial_dropout1d_6[0][0]']    
                                                                                                  
 batch_normalization_13 (BatchN  (None, 13, 16)      64          ['conv1d_13[0][0]']              
 ormalization)                                                                                    
                                                                                                  
 add_6 (Add)                    (None, 13, 16)       0           ['max_pooling1d_6[0][0]',        
                                                                  'batch_normalization_13[0][0]'] 
                                                                                                  
 activation_13 (Activation)     (None, 13, 16)       0           ['add_6[0][0]']                  
                                                                                                  
 conv1d_14 (Conv1D)             (None, 13, 32)       1568        ['activation_13[0][0]']          
                                                                                                  
 batch_normalization_14 (BatchN  (None, 13, 32)      128         ['conv1d_14[0][0]']              
 ormalization)                                                                                    
                                                                                                  
 activation_14 (Activation)     (None, 13, 32)       0           ['batch_normalization_14[0][0]'] 
                                                                                                  
 spatial_dropout1d_7 (SpatialDr  (None, 13, 32)      0           ['activation_14[0][0]']          
 opout1D)                                                                                         
                                                                                                  
 conv1d_15 (Conv1D)             (None, 7, 32)        544         ['activation_13[0][0]']          
                                                                                                  
 max_pooling1d_7 (MaxPooling1D)  (None, 7, 32)       0           ['spatial_dropout1d_7[0][0]']    
                                                                                                  
 batch_normalization_15 (BatchN  (None, 7, 32)       128         ['conv1d_15[0][0]']              
 ormalization)                                                                                    
                                                                                                  
 add_7 (Add)                    (None, 7, 32)        0           ['max_pooling1d_7[0][0]',        
                                                                  'batch_normalization_15[0][0]'] 
                                                                                                  
 activation_15 (Activation)     (None, 7, 32)        0           ['add_7[0][0]']                  
                                                                                                  
 conv1d_16 (Conv1D)             (None, 7, 64)        6208        ['activation_15[0][0]']          
                                                                                                  
 batch_normalization_16 (BatchN  (None, 7, 64)       256         ['conv1d_16[0][0]']              
 ormalization)                                                                                    
                                                                                                  
 activation_16 (Activation)     (None, 7, 64)        0           ['batch_normalization_16[0][0]'] 
                                                                                                  
 spatial_dropout1d_8 (SpatialDr  (None, 7, 64)       0           ['activation_16[0][0]']          
 opout1D)                                                                                         
                                                                                                  
 conv1d_17 (Conv1D)             (None, 4, 64)        2112        ['activation_15[0][0]']          
                                                                                                  
 max_pooling1d_8 (MaxPooling1D)  (None, 4, 64)       0           ['spatial_dropout1d_8[0][0]']    
                                                                                                  
 batch_normalization_17 (BatchN  (None, 4, 64)       256         ['conv1d_17[0][0]']              
 ormalization)                                                                                    
                                                                                                  
 add_8 (Add)                    (None, 4, 64)        0           ['max_pooling1d_8[0][0]',        
                                                                  'batch_normalization_17[0][0]'] 
                                                                                                  
 activation_17 (Activation)     (None, 4, 64)        0           ['add_8[0][0]']                  
                                                                                                  
 global_average_pooling1d_2 (Gl  (None, 64)          0           ['activation_17[0][0]']          
 obalAveragePooling1D)                                                                            
                                                                                                  
 global_max_pooling1d_2 (Global  (None, 64)          0           ['activation_17[0][0]']          
 MaxPooling1D)                                                                                    
                                                                                                  
 concatenate_2 (Concatenate)    (None, 128)          0           ['global_average_pooling1d_2[0][0
                                                                 ]',                              
                                                                  'global_max_pooling1d_2[0][0]'] 
                                                                                                  
 dropout_4 (Dropout)            (None, 128)          0           ['concatenate_2[0][0]']          
                                                                                                  
 dense_2 (Dense)                (None, 128)          16512       ['dropout_4[0][0]']              
                                                                                                  
 dropout_5 (Dropout)            (None, 128)          0           ['dense_2[0][0]']                
                                                                                                  
 has_motion (Dense)             (None, 1)            129         ['dropout_5[0][0]']              
                                                                                                  
 gesture_probs (Dense)          (None, 2)            258         ['dropout_5[0][0]']              
                                                                                                  
 output (Concatenate)           (None, 3)            0           ['has_motion[0][0]',             
                                                                  'gesture_probs[0][0]']          
                                                                                                  
==================================================================================================
Total params: 34,147
Trainable params: 33,699
Non-trainable params: 448
…
