Model: "model_37"
__________________________________________________________________________________________________
 Layer (type)                   Output Shape         Param #     Connected to                     
==================================================================================================
 input (InputLayer)             [(None, 25, 41)]     0           []                               
                                                                                                  
 basic_preprocessing_19 (BasicP  (None, 25, 41)      0           ['input[0][0]']                  
 reprocessing)                                                                                    
                                                                                                  
 conv1d_222 (Conv1D)            (None, 25, 48)       5952        ['basic_preprocessing_19[0][0]'] 
                                                                                                  
 batch_normalization_222 (Batch  (None, 25, 48)      192         ['conv1d_222[0][0]']             
 Normalization)                                                                                   
                                                                                                  
 activation_222 (Activation)    (None, 25, 48)       0           ['batch_normalization_222[0][0]']
                                                                                                  
 spatial_dropout1d_111 (Spatial  (None, 25, 48)      0           ['activation_222[0][0]']         
 Dropout1D)                                                                                       
                                                                                                  
 conv1d_223 (Conv1D)            (None, 13, 48)       2016        ['basic_preprocessing_19[0][0]'] 
                                                                                                  
 max_pooling1d_111 (MaxPooling1  (None, 13, 48)      0           ['spatial_dropout1d_111[0][0]']  
 D)                                                                                               
                                                                                                  
 batch_normalization_223 (Batch  (None, 13, 48)      192         ['conv1d_223[0][0]']             
 Normalization)                                                                                   
                                                                                                  
 add_111 (Add)                  (None, 13, 48)       0           ['max_pooling1d_111[0][0]',      
                                                                  'batch_normalization_223[0][0]']
                                                                                                  
 activation_223 (Activation)    (None, 13, 48)       0           ['add_111[0][0]']                
                                                                                                  
 conv1d_224 (Conv1D)            (None, 13, 96)       13920       ['activation_223[0][0]']         
                                                                                                  
 batch_normalization_224 (Batch  (None, 13, 96)      384         ['conv1d_224[0][0]']             
 Normalization)                                                                                   
                                                                                                  
 activation_224 (Activation)    (None, 13, 96)       0           ['batch_normalization_224[0][0]']
                                                                                                  
 spatial_dropout1d_112 (Spatial  (None, 13, 96)      0           ['activation_224[0][0]']         
 Dropout1D)                                                                                       
                                                                                                  
 conv1d_225 (Conv1D)            (None, 7, 96)        4704        ['activation_223[0][0]']         
                                                                                                  
 max_pooling1d_112 (MaxPooling1  (None, 7, 96)       0           ['spatial_dropout1d_112[0][0]']  
 D)                                                                                               
                                                                                                  
 batch_normalization_225 (Batch  (None, 7, 96)       384         ['conv1d_225[0][0]']             
 Normalization)                                                                                   
                                                                                                  
 add_112 (Add)                  (None, 7, 96)        0           ['max_pooling1d_112[0][0]',      
                                                                  'batch_normalization_225[0][0]']
                                                                                                  
 activation_225 (Activation)    (None, 7, 96)        0           ['add_112[0][0]']                
                                                                                                  
 conv1d_226 (Conv1D)            (None, 7, 192)       55488       ['activation_225[0][0]']         
                                                                                                  
 batch_normalization_226 (Batch  (None, 7, 192)      768         ['conv1d_226[0][0]']             
 Normalization)                                                                                   
                                                                                                  
 activation_226 (Activation)    (None, 7, 192)       0           ['batch_normalization_226[0][0]']
                                                                                                  
 spatial_dropout1d_113 (Spatial  (None, 7, 192)      0           ['activation_226[0][0]']         
 Dropout1D)                                                                                       
                                                                                                  
 conv1d_227 (Conv1D)            (None, 4, 192)       18624       ['activation_225[0][0]']         
                                                                                                  
 max_pooling1d_113 (MaxPooling1  (None, 4, 192)      0           ['spatial_dropout1d_113[0][0]']  
 D)                                                                                               
                                                                                                  
 batch_normalization_227 (Batch  (None, 4, 192)      768         ['conv1d_227[0][0]']             
 Normalization)                                                                                   
                                                                                                  
 add_113 (Add)                  (None, 4, 192)       0           ['max_pooling1d_113[0][0]',      
                                                                  'batch_normalization_227[0][0]']
                                                                                                  
 activation_227 (Activation)    (None, 4, 192)       0           ['add_113[0][0]']                
                                                                                                  
 global_average_pooling1d_37 (G  (None, 192)         0           ['activation_227[0][0]']         
 lobalAveragePooling1D)                                                                           
                                                                                                  
 global_max_pooling1d_37 (Globa  (None, 192)         0           ['activation_227[0][0]']         
 lMaxPooling1D)                                                                                   
                                                                                                  
 concatenate_37 (Concatenate)   (None, 384)          0           ['global_average_pooling1d_37[0][
                                                                 0]',                             
                                                                  'global_max_pooling1d_37[0][0]']
                                                                                                  
 dropout_74 (Dropout)           (None, 384)          0           ['concatenate_37[0][0]']         
                                                                                                  
 dense_37 (Dense)               (None, 128)          49280       ['dropout_74[0][0]']             
                                                                                                  
 dropout_75 (Dropout)           (None, 128)          0           ['dense_37[0][0]']               
                                                                                                  
 has_motion (Dense)             (None, 1)            129         ['dropout_75[0][0]']             
                                                                                                  
 gesture_probs (Dense)          (None, 2)            258         ['dropout_75[0][0]']             
                                                                                                  
 output (Concatenate)           (None, 3)            0           ['has_motion[0][0]',             
                                                                  'gesture_probs[0][0]']          
                                                                                                  
==================================================================================================
Total params: 153,059
Trainable params: 151,715
Non-trainable params: 1,344
…
